node {
  name: "load_images/input_producer/Const"
  op: "Const"
  attr {
    key: "_output_shapes"
    value {
      list {
        shape {
          dim {
            size: 100
          }
        }
      }
    }
  }
  attr {
    key: "dtype"
    value {
      type: DT_STRING
    }
  }
  attr {
    key: "value"
    value {
      tensor {
        dtype: DT_STRING
        tensor_shape {
          dim {
            size: 100
          }
        }
        string_val: "facades/val\\1.jpg"
        string_val: "facades/val\\2.jpg"
        string_val: "facades/val\\3.jpg"
        string_val: "facades/val\\4.jpg"
        string_val: "facades/val\\5.jpg"
        string_val: "facades/val\\6.jpg"
        string_val: "facades/val\\7.jpg"
        string_val: "facades/val\\8.jpg"
        string_val: "facades/val\\9.jpg"
        string_val: "facades/val\\10.jpg"
        string_val: "facades/val\\11.jpg"
        string_val: "facades/val\\12.jpg"
        string_val: "facades/val\\13.jpg"
        string_val: "facades/val\\14.jpg"
        string_val: "facades/val\\15.jpg"
        string_val: "facades/val\\16.jpg"
        string_val: "facades/val\\17.jpg"
        string_val: "facades/val\\18.jpg"
        string_val: "facades/val\\19.jpg"
        string_val: "facades/val\\20.jpg"
        string_val: "facades/val\\21.jpg"
        string_val: "facades/val\\22.jpg"
        string_val: "facades/val\\23.jpg"
        string_val: "facades/val\\24.jpg"
        string_val: "facades/val\\25.jpg"
        string_val: "facades/val\\26.jpg"
        string_val: "facades/val\\27.jpg"
        string_val: "facades/val\\28.jpg"
        string_val: "facades/val\\29.jpg"
        string_val: "facades/val\\30.jpg"
        string_val: "facades/val\\31.jpg"
        string_val: "facades/val\\32.jpg"
        string_val: "facades/val\\33.jpg"
        string_val: "facades/val\\34.jpg"
        string_val: "facades/val\\35.jpg"
        string_val: "facades/val\\36.jpg"
        string_val: "facades/val\\37.jpg"
        string_val: "facades/val\\38.jpg"
        string_val: "facades/val\\39.jpg"
        string_val: "facades/val\\40.jpg"
        string_val: "facades/val\\41.jpg"
        string_val: "facades/val\\42.jpg"
        string_val: "facades/val\\43.jpg"
        string_val: "facades/val\\44.jpg"
        string_val: "facades/val\\45.jpg"
        string_val: "facades/val\\46.jpg"
        string_val: "facades/val\\47.jpg"
        string_val: "facades/val\\48.jpg"
        string_val: "facades/val\\49.jpg"
        string_val: "facades/val\\50.jpg"
        string_val: "facades/val\\51.jpg"
        string_val: "facades/val\\52.jpg"
        string_val: "facades/val\\53.jpg"
        string_val: "facades/val\\54.jpg"
        string_val: "facades/val\\55.jpg"
        string_val: "facades/val\\56.jpg"
        string_val: "facades/val\\57.jpg"
        string_val: "facades/val\\58.jpg"
        string_val: "facades/val\\59.jpg"
        string_val: "facades/val\\60.jpg"
        string_val: "facades/val\\61.jpg"
        string_val: "facades/val\\62.jpg"
        string_val: "facades/val\\63.jpg"
        string_val: "facades/val\\64.jpg"
        string_val: "facades/val\\65.jpg"
        string_val: "facades/val\\66.jpg"
        string_val: "facades/val\\67.jpg"
        string_val: "facades/val\\68.jpg"
        string_val: "facades/val\\69.jpg"
        string_val: "facades/val\\70.jpg"
        string_val: "facades/val\\71.jpg"
        string_val: "facades/val\\72.jpg"
        string_val: "facades/val\\73.jpg"
        string_val: "facades/val\\74.jpg"
        string_val: "facades/val\\75.jpg"
        string_val: "facades/val\\76.jpg"
        string_val: "facades/val\\77.jpg"
        string_val: "facades/val\\78.jpg"
        string_val: "facades/val\\79.jpg"
        string_val: "facades/val\\80.jpg"
        string_val: "facades/val\\81.jpg"
        string_val: "facades/val\\82.jpg"
        string_val: "facades/val\\83.jpg"
        string_val: "facades/val\\84.jpg"
        string_val: "facades/val\\85.jpg"
        string_val: "facades/val\\86.jpg"
        string_val: "facades/val\\87.jpg"
        string_val: "facades/val\\88.jpg"
        string_val: "facades/val\\89.jpg"
        string_val: "facades/val\\90.jpg"
        string_val: "facades/val\\91.jpg"
        string_val: "facades/val\\92.jpg"
        string_val: "facades/val\\93.jpg"
        string_val: "facades/val\\94.jpg"
        string_val: "facades/val\\95.jpg"
        string_val: "facades/val\\96.jpg"
        string_val: "facades/val\\97.jpg"
        string_val: "facades/val\\98.jpg"
        string_val: "facades/val\\99.jpg"
        string_val: "facades/val\\100.jpg"
      }
    }
  }
}
node {
  name: "load_images/input_producer/Size"
  op: "Const"
  attr {
    key: "_output_shapes"
    value {
      list {
        shape {
        }
      }
    }
  }
  attr {
    key: "dtype"
    value {
      type: DT_INT32
    }
  }
  attr {
    key: "value"
    value {
      tensor {
        dtype: DT_INT32
        tensor_shape {
        }
        int_val: 100
      }
    }
  }
}
node {
  name: "load_images/input_producer/Greater/y"
  op: "Const"
  attr {
    key: "_output_shapes"
    value {
      list {
        shape {
        }
      }
    }
  }
  attr {
    key: "dtype"
    value {
      type: DT_INT32
    }
  }
  attr {
    key: "value"
    value {
      tensor {
        dtype: DT_INT32
        tensor_shape {
        }
        int_val: 0
      }
    }
  }
}
node {
  name: "load_images/input_producer/Greater"
  op: "Greater"
  input: "load_images/input_producer/Size"
  input: "load_images/input_producer/Greater/y"
  attr {
    key: "T"
    value {
      type: DT_INT32
    }
  }
  attr {
    key: "_output_shapes"
    value {
      list {
        shape {
        }
      }
    }
  }
}
node {
  name: "load_images/input_producer/Assert/Const"
  op: "Const"
  attr {
    key: "_output_shapes"
    value {
      list {
        shape {
        }
      }
    }
  }
  attr {
    key: "dtype"
    value {
      type: DT_STRING
    }
  }
  attr {
    key: "value"
    value {
      tensor {
        dtype: DT_STRING
        tensor_shape {
        }
        string_val: "string_input_producer requires a non-null input tensor"
      }
    }
  }
}
node {
  name: "load_images/input_producer/Assert/Assert/data_0"
  op: "Const"
  attr {
    key: "_output_shapes"
    value {
      list {
        shape {
        }
      }
    }
  }
  attr {
    key: "dtype"
    value {
      type: DT_STRING
    }
  }
  attr {
    key: "value"
    value {
      tensor {
        dtype: DT_STRING
        tensor_shape {
        }
        string_val: "string_input_producer requires a non-null input tensor"
      }
    }
  }
}
node {
  name: "load_images/input_producer/Assert/Assert"
  op: "Assert"
  input: "load_images/input_producer/Greater"
  input: "load_images/input_producer/Assert/Assert/data_0"
  attr {
    key: "T"
    value {
      list {
        type: DT_STRING
      }
    }
  }
  attr {
    key: "summarize"
    value {
      i: 3
    }
  }
}
node {
  name: "load_images/input_producer/Identity"
  op: "Identity"
  input: "load_images/input_producer/Const"
  input: "^load_images/input_producer/Assert/Assert"
  attr {
    key: "T"
    value {
      type: DT_STRING
    }
  }
  attr {
    key: "_output_shapes"
    value {
      list {
        shape {
          dim {
            size: 100
          }
        }
      }
    }
  }
}
node {
  name: "load_images/input_producer"
  op: "FIFOQueueV2"
  attr {
    key: "_output_shapes"
    value {
      list {
        shape {
        }
      }
    }
  }
  attr {
    key: "capacity"
    value {
      i: 32
    }
  }
  attr {
    key: "component_types"
    value {
      list {
        type: DT_STRING
      }
    }
  }
  attr {
    key: "container"
    value {
      s: ""
    }
  }
  attr {
    key: "shapes"
    value {
      list {
        shape {
        }
      }
    }
  }
  attr {
    key: "shared_name"
    value {
      s: ""
    }
  }
}
node {
  name: "load_images/input_producer/input_producer_EnqueueMany"
  op: "QueueEnqueueManyV2"
  input: "load_images/input_producer"
  input: "load_images/input_producer/Identity"
  attr {
    key: "Tcomponents"
    value {
      list {
        type: DT_STRING
      }
    }
  }
  attr {
    key: "timeout_ms"
    value {
      i: -1
    }
  }
}
node {
  name: "load_images/input_producer/input_producer_Close"
  op: "QueueCloseV2"
  input: "load_images/input_producer"
  attr {
    key: "cancel_pending_enqueues"
    value {
      b: false
    }
  }
}
node {
  name: "load_images/input_producer/input_producer_Close_1"
  op: "QueueCloseV2"
  input: "load_images/input_producer"
  attr {
    key: "cancel_pending_enqueues"
    value {
      b: true
    }
  }
}
node {
  name: "load_images/input_producer/input_producer_Size"
  op: "QueueSizeV2"
  input: "load_images/input_producer"
  attr {
    key: "_output_shapes"
    value {
      list {
        shape {
        }
      }
    }
  }
}
node {
  name: "load_images/input_producer/ToFloat"
  op: "Cast"
  input: "load_images/input_producer/input_producer_Size"
  attr {
    key: "DstT"
    value {
      type: DT_FLOAT
    }
  }
  attr {
    key: "SrcT"
    value {
      type: DT_INT32
    }
  }
  attr {
    key: "_output_shapes"
    value {
      list {
        shape {
        }
      }
    }
  }
}
node {
  name: "load_images/input_producer/mul/y"
  op: "Const"
  attr {
    key: "_output_shapes"
    value {
      list {
        shape {
        }
      }
    }
  }
  attr {
    key: "dtype"
    value {
      type: DT_FLOAT
    }
  }
  attr {
    key: "value"
    value {
      tensor {
        dtype: DT_FLOAT
        tensor_shape {
        }
        float_val: 0.03125
      }
    }
  }
}
node {
  name: "load_images/input_producer/mul"
  op: "Mul"
  input: "load_images/input_producer/ToFloat"
  input: "load_images/input_producer/mul/y"
  attr {
    key: "T"
    value {
      type: DT_FLOAT
    }
  }
  attr {
    key: "_output_shapes"
    value {
      list {
        shape {
        }
      }
    }
  }
}
node {
  name: "load_images/input_producer/fraction_of_32_full/tags"
  op: "Const"
  attr {
    key: "_output_shapes"
    value {
      list {
        shape {
        }
      }
    }
  }
  attr {
    key: "dtype"
    value {
      type: DT_STRING
    }
  }
  attr {
    key: "value"
    value {
      tensor {
        dtype: DT_STRING
        tensor_shape {
        }
        string_val: "load_images/input_producer/fraction_of_32_full"
      }
    }
  }
}
node {
  name: "load_images/input_producer/fraction_of_32_full"
  op: "ScalarSummary"
  input: "load_images/input_producer/fraction_of_32_full/tags"
  input: "load_images/input_producer/mul"
  attr {
    key: "T"
    value {
      type: DT_FLOAT
    }
  }
  attr {
    key: "_output_shapes"
    value {
      list {
        shape {
        }
      }
    }
  }
}
node {
  name: "load_images/WholeFileReaderV2"
  op: "WholeFileReaderV2"
  attr {
    key: "_output_shapes"
    value {
      list {
        shape {
        }
      }
    }
  }
  attr {
    key: "container"
    value {
      s: ""
    }
  }
  attr {
    key: "shared_name"
    value {
      s: ""
    }
  }
}
node {
  name: "load_images/ReaderReadV2"
  op: "ReaderReadV2"
  input: "load_images/WholeFileReaderV2"
  input: "load_images/input_producer"
  attr {
    key: "_output_shapes"
    value {
      list {
        shape {
        }
        shape {
        }
      }
    }
  }
}
node {
  name: "load_images/DecodeJpeg"
  op: "DecodeJpeg"
  input: "load_images/ReaderReadV2:1"
  attr {
    key: "_output_shapes"
    value {
      list {
        shape {
          dim {
            size: -1
          }
          dim {
            size: -1
          }
          dim {
            size: -1
          }
        }
      }
    }
  }
  attr {
    key: "acceptable_fraction"
    value {
      f: 1.0
    }
  }
  attr {
    key: "channels"
    value {
      i: 0
    }
  }
  attr {
    key: "dct_method"
    value {
      s: ""
    }
  }
  attr {
    key: "fancy_upscaling"
    value {
      b: true
    }
  }
  attr {
    key: "ratio"
    value {
      i: 1
    }
  }
  attr {
    key: "try_recover_truncated"
    value {
      b: false
    }
  }
}
node {
  name: "load_images/convert_image/Cast"
  op: "Cast"
  input: "load_images/DecodeJpeg"
  attr {
    key: "DstT"
    value {
      type: DT_FLOAT
    }
  }
  attr {
    key: "SrcT"
    value {
      type: DT_UINT8
    }
  }
  attr {
    key: "_output_shapes"
    value {
      list {
        shape {
          dim {
            size: -1
          }
          dim {
            size: -1
          }
          dim {
            size: -1
          }
        }
      }
    }
  }
}
node {
  name: "load_images/convert_image/y"
  op: "Const"
  attr {
    key: "_output_shapes"
    value {
      list {
        shape {
        }
      }
    }
  }
  attr {
    key: "dtype"
    value {
      type: DT_FLOAT
    }
  }
  attr {
    key: "value"
    value {
      tensor {
        dtype: DT_FLOAT
        tensor_shape {
        }
        float_val: 0.003921569
      }
    }
  }
}
node {
  name: "load_images/convert_image"
  op: "Mul"
  input: "load_images/convert_image/Cast"
  input: "load_images/convert_image/y"
  attr {
    key: "T"
    value {
      type: DT_FLOAT
    }
  }
  attr {
    key: "_output_shapes"
    value {
      list {
        shape {
          dim {
            size: -1
          }
          dim {
            size: -1
          }
          dim {
            size: -1
          }
        }
      }
    }
  }
}
node {
  name: "load_images/Shape"
  op: "Shape"
  input: "load_images/convert_image"
  attr {
    key: "T"
    value {
      type: DT_FLOAT
    }
  }
  attr {
    key: "_output_shapes"
    value {
      list {
        shape {
          dim {
            size: 3
          }
        }
      }
    }
  }
  attr {
    key: "out_type"
    value {
      type: DT_INT32
    }
  }
}
node {
  name: "load_images/strided_slice/stack"
  op: "Const"
  attr {
    key: "_output_shapes"
    value {
      list {
        shape {
          dim {
            size: 1
          }
        }
      }
    }
  }
  attr {
    key: "dtype"
    value {
      type: DT_INT32
    }
  }
  attr {
    key: "value"
    value {
      tensor {
        dtype: DT_INT32
        tensor_shape {
          dim {
            size: 1
          }
        }
        int_val: 2
      }
    }
  }
}
node {
  name: "load_images/strided_slice/stack_1"
  op: "Const"
  attr {
    key: "_output_shapes"
    value {
      list {
        shape {
          dim {
            size: 1
          }
        }
      }
    }
  }
  attr {
    key: "dtype"
    value {
      type: DT_INT32
    }
  }
  attr {
    key: "value"
    value {
      tensor {
        dtype: DT_INT32
        tensor_shape {
          dim {
            size: 1
          }
        }
        int_val: 3
      }
    }
  }
}
node {
  name: "load_images/strided_slice/stack_2"
  op: "Const"
  attr {
    key: "_output_shapes"
    value {
      list {
        shape {
          dim {
            size: 1
          }
        }
      }
    }
  }
  attr {
    key: "dtype"
    value {
      type: DT_INT32
    }
  }
  attr {
    key: "value"
    value {
      tensor {
        dtype: DT_INT32
        tensor_shape {
          dim {
            size: 1
          }
        }
        int_val: 1
      }
    }
  }
}
node {
  name: "load_images/strided_slice"
  op: "StridedSlice"
  input: "load_images/Shape"
  input: "load_images/strided_slice/stack"
  input: "load_images/strided_slice/stack_1"
  input: "load_images/strided_slice/stack_2"
  attr {
    key: "Index"
    value {
      type: DT_INT32
    }
  }
  attr {
    key: "T"
    value {
      type: DT_INT32
    }
  }
  attr {
    key: "_output_shapes"
    value {
      list {
        shape {
        }
      }
    }
  }
  attr {
    key: "begin_mask"
    value {
      i: 0
    }
  }
  attr {
    key: "ellipsis_mask"
    value {
      i: 0
    }
  }
  attr {
    key: "end_mask"
    value {
      i: 0
    }
  }
  attr {
    key: "new_axis_mask"
    value {
      i: 0
    }
  }
  attr {
    key: "shrink_axis_mask"
    value {
      i: 1
    }
  }
}
node {
  name: "load_images/assert_equal/y"
  op: "Const"
  attr {
    key: "_output_shapes"
    value {
      list {
        shape {
        }
      }
    }
  }
  attr {
    key: "dtype"
    value {
      type: DT_INT32
    }
  }
  attr {
    key: "value"
    value {
      tensor {
        dtype: DT_INT32
        tensor_shape {
        }
        int_val: 3
      }
    }
  }
}
node {
  name: "load_images/assert_equal/Equal"
  op: "Equal"
  input: "load_images/strided_slice"
  input: "load_images/assert_equal/y"
  attr {
    key: "T"
    value {
      type: DT_INT32
    }
  }
  attr {
    key: "_output_shapes"
    value {
      list {
        shape {
        }
      }
    }
  }
}
node {
  name: "load_images/assert_equal/Const"
  op: "Const"
  attr {
    key: "_output_shapes"
    value {
      list {
        shape {
          dim {
          }
        }
      }
    }
  }
  attr {
    key: "dtype"
    value {
      type: DT_INT32
    }
  }
  attr {
    key: "value"
    value {
      tensor {
        dtype: DT_INT32
        tensor_shape {
          dim {
          }
        }
      }
    }
  }
}
node {
  name: "load_images/assert_equal/All"
  op: "All"
  input: "load_images/assert_equal/Equal"
  input: "load_images/assert_equal/Const"
  attr {
    key: "Tidx"
    value {
      type: DT_INT32
    }
  }
  attr {
    key: "_output_shapes"
    value {
      list {
        shape {
        }
      }
    }
  }
  attr {
    key: "keep_dims"
    value {
      b: false
    }
  }
}
node {
  name: "load_images/assert_equal/Assert/Const"
  op: "Const"
  attr {
    key: "_output_shapes"
    value {
      list {
        shape {
        }
      }
    }
  }
  attr {
    key: "dtype"
    value {
      type: DT_STRING
    }
  }
  attr {
    key: "value"
    value {
      tensor {
        dtype: DT_STRING
        tensor_shape {
        }
        string_val: "image does not have 3 channels"
      }
    }
  }
}
node {
  name: "load_images/assert_equal/Assert/Const_1"
  op: "Const"
  attr {
    key: "_output_shapes"
    value {
      list {
        shape {
        }
      }
    }
  }
  attr {
    key: "dtype"
    value {
      type: DT_STRING
    }
  }
  attr {
    key: "value"
    value {
      tensor {
        dtype: DT_STRING
        tensor_shape {
        }
        string_val: "Condition x == y did not hold element-wise:"
      }
    }
  }
}
node {
  name: "load_images/assert_equal/Assert/Const_2"
  op: "Const"
  attr {
    key: "_output_shapes"
    value {
      list {
        shape {
        }
      }
    }
  }
  attr {
    key: "dtype"
    value {
      type: DT_STRING
    }
  }
  attr {
    key: "value"
    value {
      tensor {
        dtype: DT_STRING
        tensor_shape {
        }
        string_val: "x (load_images/strided_slice:0) = "
      }
    }
  }
}
node {
  name: "load_images/assert_equal/Assert/Const_3"
  op: "Const"
  attr {
    key: "_output_shapes"
    value {
      list {
        shape {
        }
      }
    }
  }
  attr {
    key: "dtype"
    value {
      type: DT_STRING
    }
  }
  attr {
    key: "value"
    value {
      tensor {
        dtype: DT_STRING
        tensor_shape {
        }
        string_val: "y (load_images/assert_equal/y:0) = "
      }
    }
  }
}
node {
  name: "load_images/assert_equal/Assert/Assert/data_0"
  op: "Const"
  attr {
    key: "_output_shapes"
    value {
      list {
        shape {
        }
      }
    }
  }
  attr {
    key: "dtype"
    value {
      type: DT_STRING
    }
  }
  attr {
    key: "value"
    value {
      tensor {
        dtype: DT_STRING
        tensor_shape {
        }
        string_val: "image does not have 3 channels"
      }
    }
  }
}
node {
  name: "load_images/assert_equal/Assert/Assert/data_1"
  op: "Const"
  attr {
    key: "_output_shapes"
    value {
      list {
        shape {
        }
      }
    }
  }
  attr {
    key: "dtype"
    value {
      type: DT_STRING
    }
  }
  attr {
    key: "value"
    value {
      tensor {
        dtype: DT_STRING
        tensor_shape {
        }
        string_val: "Condition x == y did not hold element-wise:"
      }
    }
  }
}
node {
  name: "load_images/assert_equal/Assert/Assert/data_2"
  op: "Const"
  attr {
    key: "_output_shapes"
    value {
      list {
        shape {
        }
      }
    }
  }
  attr {
    key: "dtype"
    value {
      type: DT_STRING
    }
  }
  attr {
    key: "value"
    value {
      tensor {
        dtype: DT_STRING
        tensor_shape {
        }
        string_val: "x (load_images/strided_slice:0) = "
      }
    }
  }
}
node {
  name: "load_images/assert_equal/Assert/Assert/data_4"
  op: "Const"
  attr {
    key: "_output_shapes"
    value {
      list {
        shape {
        }
      }
    }
  }
  attr {
    key: "dtype"
    value {
      type: DT_STRING
    }
  }
  attr {
    key: "value"
    value {
      tensor {
        dtype: DT_STRING
        tensor_shape {
        }
        string_val: "y (load_images/assert_equal/y:0) = "
      }
    }
  }
}
node {
  name: "load_images/assert_equal/Assert/Assert"
  op: "Assert"
  input: "load_images/assert_equal/All"
  input: "load_images/assert_equal/Assert/Assert/data_0"
  input: "load_images/assert_equal/Assert/Assert/data_1"
  input: "load_images/assert_equal/Assert/Assert/data_2"
  input: "load_images/strided_slice"
  input: "load_images/assert_equal/Assert/Assert/data_4"
  input: "load_images/assert_equal/y"
  attr {
    key: "T"
    value {
      list {
        type: DT_STRING
        type: DT_STRING
        type: DT_STRING
        type: DT_INT32
        type: DT_STRING
        type: DT_INT32
      }
    }
  }
  attr {
    key: "summarize"
    value {
      i: 3
    }
  }
}
node {
  name: "load_images/Identity"
  op: "Identity"
  input: "load_images/convert_image"
  input: "^load_images/assert_equal/Assert/Assert"
  attr {
    key: "T"
    value {
      type: DT_FLOAT
    }
  }
  attr {
    key: "_output_shapes"
    value {
      list {
        shape {
          dim {
            size: -1
          }
          dim {
            size: -1
          }
          dim {
            size: 3
          }
        }
      }
    }
  }
}
node {
  name: "load_images/Shape_1"
  op: "Shape"
  input: "load_images/Identity"
  attr {
    key: "T"
    value {
      type: DT_FLOAT
    }
  }
  attr {
    key: "_output_shapes"
    value {
      list {
        shape {
          dim {
            size: 3
          }
        }
      }
    }
  }
  attr {
    key: "out_type"
    value {
      type: DT_INT32
    }
  }
}
node {
  name: "load_images/strided_slice_1/stack"
  op: "Const"
  attr {
    key: "_output_shapes"
    value {
      list {
        shape {
          dim {
            size: 1
          }
        }
      }
    }
  }
  attr {
    key: "dtype"
    value {
      type: DT_INT32
    }
  }
  attr {
    key: "value"
    value {
      tensor {
        dtype: DT_INT32
        tensor_shape {
          dim {
            size: 1
          }
        }
        int_val: 1
      }
    }
  }
}
node {
  name: "load_images/strided_slice_1/stack_1"
  op: "Const"
  attr {
    key: "_output_shapes"
    value {
      list {
        shape {
          dim {
            size: 1
          }
        }
      }
    }
  }
  attr {
    key: "dtype"
    value {
      type: DT_INT32
    }
  }
  attr {
    key: "value"
    value {
      tensor {
        dtype: DT_INT32
        tensor_shape {
          dim {
            size: 1
          }
        }
        int_val: 2
      }
    }
  }
}
node {
  name: "load_images/strided_slice_1/stack_2"
  op: "Const"
  attr {
    key: "_output_shapes"
    value {
      list {
        shape {
          dim {
            size: 1
          }
        }
      }
    }
  }
  attr {
    key: "dtype"
    value {
      type: DT_INT32
    }
  }
  attr {
    key: "value"
    value {
      tensor {
        dtype: DT_INT32
        tensor_shape {
          dim {
            size: 1
          }
        }
        int_val: 1
      }
    }
  }
}
node {
  name: "load_images/strided_slice_1"
  op: "StridedSlice"
  input: "load_images/Shape_1"
  input: "load_images/strided_slice_1/stack"
  input: "load_images/strided_slice_1/stack_1"
  input: "load_images/strided_slice_1/stack_2"
  attr {
    key: "Index"
    value {
      type: DT_INT32
    }
  }
  attr {
    key: "T"
    value {
      type: DT_INT32
    }
  }
  attr {
    key: "_output_shapes"
    value {
      list {
        shape {
        }
      }
    }
  }
  attr {
    key: "begin_mask"
    value {
      i: 0
    }
  }
  attr {
    key: "ellipsis_mask"
    value {
      i: 0
    }
  }
  attr {
    key: "end_mask"
    value {
      i: 0
    }
  }
  attr {
    key: "new_axis_mask"
    value {
      i: 0
    }
  }
  attr {
    key: "shrink_axis_mask"
    value {
      i: 1
    }
  }
}
node {
  name: "load_images/floordiv/y"
  op: "Const"
  attr {
    key: "_output_shapes"
    value {
      list {
        shape {
        }
      }
    }
  }
  attr {
    key: "dtype"
    value {
      type: DT_INT32
    }
  }
  attr {
    key: "value"
    value {
      tensor {
        dtype: DT_INT32
        tensor_shape {
        }
        int_val: 2
      }
    }
  }
}
node {
  name: "load_images/floordiv"
  op: "FloorDiv"
  input: "load_images/strided_slice_1"
  input: "load_images/floordiv/y"
  attr {
    key: "T"
    value {
      type: DT_INT32
    }
  }
  attr {
    key: "_output_shapes"
    value {
      list {
        shape {
        }
      }
    }
  }
}
node {
  name: "load_images/strided_slice_2/stack"
  op: "Const"
  attr {
    key: "_output_shapes"
    value {
      list {
        shape {
          dim {
            size: 3
          }
        }
      }
    }
  }
  attr {
    key: "dtype"
    value {
      type: DT_INT32
    }
  }
  attr {
    key: "value"
    value {
      tensor {
        dtype: DT_INT32
        tensor_shape {
          dim {
            size: 3
          }
        }
        tensor_content: "\000\000\000\000\000\000\000\000\000\000\000\000"
      }
    }
  }
}
node {
  name: "load_images/strided_slice_2/stack_1/0"
  op: "Const"
  attr {
    key: "_output_shapes"
    value {
      list {
        shape {
        }
      }
    }
  }
  attr {
    key: "dtype"
    value {
      type: DT_INT32
    }
  }
  attr {
    key: "value"
    value {
      tensor {
        dtype: DT_INT32
        tensor_shape {
        }
        int_val: 0
      }
    }
  }
}
node {
  name: "load_images/strided_slice_2/stack_1/2"
  op: "Const"
  attr {
    key: "_output_shapes"
    value {
      list {
        shape {
        }
      }
    }
  }
  attr {
    key: "dtype"
    value {
      type: DT_INT32
    }
  }
  attr {
    key: "value"
    value {
      tensor {
        dtype: DT_INT32
        tensor_shape {
        }
        int_val: 0
      }
    }
  }
}
node {
  name: "load_images/strided_slice_2/stack_1"
  op: "Pack"
  input: "load_images/strided_slice_2/stack_1/0"
  input: "load_images/floordiv"
  input: "load_images/strided_slice_2/stack_1/2"
  attr {
    key: "N"
    value {
      i: 3
    }
  }
  attr {
    key: "T"
    value {
      type: DT_INT32
    }
  }
  attr {
    key: "_output_shapes"
    value {
      list {
        shape {
          dim {
            size: 3
          }
        }
      }
    }
  }
  attr {
    key: "axis"
    value {
      i: 0
    }
  }
}
node {
  name: "load_images/strided_slice_2/stack_2"
  op: "Const"
  attr {
    key: "_output_shapes"
    value {
      list {
        shape {
          dim {
            size: 3
          }
        }
      }
    }
  }
  attr {
    key: "dtype"
    value {
      type: DT_INT32
    }
  }
  attr {
    key: "value"
    value {
      tensor {
        dtype: DT_INT32
        tensor_shape {
          dim {
            size: 3
          }
        }
        tensor_content: "\001\000\000\000\001\000\000\000\001\000\000\000"
      }
    }
  }
}
node {
  name: "load_images/strided_slice_2"
  op: "StridedSlice"
  input: "load_images/Identity"
  input: "load_images/strided_slice_2/stack"
  input: "load_images/strided_slice_2/stack_1"
  input: "load_images/strided_slice_2/stack_2"
  attr {
    key: "Index"
    value {
      type: DT_INT32
    }
  }
  attr {
    key: "T"
    value {
      type: DT_FLOAT
    }
  }
  attr {
    key: "_output_shapes"
    value {
      list {
        shape {
          dim {
            size: -1
          }
          dim {
            size: -1
          }
          dim {
            size: 3
          }
        }
      }
    }
  }
  attr {
    key: "begin_mask"
    value {
      i: 7
    }
  }
  attr {
    key: "ellipsis_mask"
    value {
      i: 0
    }
  }
  attr {
    key: "end_mask"
    value {
      i: 5
    }
  }
  attr {
    key: "new_axis_mask"
    value {
      i: 0
    }
  }
  attr {
    key: "shrink_axis_mask"
    value {
      i: 0
    }
  }
}
node {
  name: "load_images/preprocess/mul/y"
  op: "Const"
  attr {
    key: "_output_shapes"
    value {
      list {
        shape {
        }
      }
    }
  }
  attr {
    key: "dtype"
    value {
      type: DT_FLOAT
    }
  }
  attr {
    key: "value"
    value {
      tensor {
        dtype: DT_FLOAT
        tensor_shape {
        }
        float_val: 2.0
      }
    }
  }
}
node {
  name: "load_images/preprocess/mul"
  op: "Mul"
  input: "load_images/strided_slice_2"
  input: "load_images/preprocess/mul/y"
  attr {
    key: "T"
    value {
      type: DT_FLOAT
    }
  }
  attr {
    key: "_output_shapes"
    value {
      list {
        shape {
          dim {
            size: -1
          }
          dim {
            size: -1
          }
          dim {
            size: 3
          }
        }
      }
    }
  }
}
node {
  name: "load_images/preprocess/sub/y"
  op: "Const"
  attr {
    key: "_output_shapes"
    value {
      list {
        shape {
        }
      }
    }
  }
  attr {
    key: "dtype"
    value {
      type: DT_FLOAT
    }
  }
  attr {
    key: "value"
    value {
      tensor {
        dtype: DT_FLOAT
        tensor_shape {
        }
        float_val: 1.0
      }
    }
  }
}
node {
  name: "load_images/preprocess/sub"
  op: "Sub"
  input: "load_images/preprocess/mul"
  input: "load_images/preprocess/sub/y"
  attr {
    key: "T"
    value {
      type: DT_FLOAT
    }
  }
  attr {
    key: "_output_shapes"
    value {
      list {
        shape {
          dim {
            size: -1
          }
          dim {
            size: -1
          }
          dim {
            size: 3
          }
        }
      }
    }
  }
}
node {
  name: "load_images/floordiv_1/y"
  op: "Const"
  attr {
    key: "_output_shapes"
    value {
      list {
        shape {
        }
      }
    }
  }
  attr {
    key: "dtype"
    value {
      type: DT_INT32
    }
  }
  attr {
    key: "value"
    value {
      tensor {
        dtype: DT_INT32
        tensor_shape {
        }
        int_val: 2
      }
    }
  }
}
node {
  name: "load_images/floordiv_1"
  op: "FloorDiv"
  input: "load_images/strided_slice_1"
  input: "load_images/floordiv_1/y"
  attr {
    key: "T"
    value {
      type: DT_INT32
    }
  }
  attr {
    key: "_output_shapes"
    value {
      list {
        shape {
        }
      }
    }
  }
}
node {
  name: "load_images/strided_slice_3/stack/0"
  op: "Const"
  attr {
    key: "_output_shapes"
    value {
      list {
        shape {
        }
      }
    }
  }
  attr {
    key: "dtype"
    value {
      type: DT_INT32
    }
  }
  attr {
    key: "value"
    value {
      tensor {
        dtype: DT_INT32
        tensor_shape {
        }
        int_val: 0
      }
    }
  }
}
node {
  name: "load_images/strided_slice_3/stack/2"
  op: "Const"
  attr {
    key: "_output_shapes"
    value {
      list {
        shape {
        }
      }
    }
  }
  attr {
    key: "dtype"
    value {
      type: DT_INT32
    }
  }
  attr {
    key: "value"
    value {
      tensor {
        dtype: DT_INT32
        tensor_shape {
        }
        int_val: 0
      }
    }
  }
}
node {
  name: "load_images/strided_slice_3/stack"
  op: "Pack"
  input: "load_images/strided_slice_3/stack/0"
  input: "load_images/floordiv_1"
  input: "load_images/strided_slice_3/stack/2"
  attr {
    key: "N"
    value {
      i: 3
    }
  }
  attr {
    key: "T"
    value {
      type: DT_INT32
    }
  }
  attr {
    key: "_output_shapes"
    value {
      list {
        shape {
          dim {
            size: 3
          }
        }
      }
    }
  }
  attr {
    key: "axis"
    value {
      i: 0
    }
  }
}
node {
  name: "load_images/strided_slice_3/stack_1"
  op: "Const"
  attr {
    key: "_output_shapes"
    value {
      list {
        shape {
          dim {
            size: 3
          }
        }
      }
    }
  }
  attr {
    key: "dtype"
    value {
      type: DT_INT32
    }
  }
  attr {
    key: "value"
    value {
      tensor {
        dtype: DT_INT32
        tensor_shape {
          dim {
            size: 3
          }
        }
        tensor_content: "\000\000\000\000\000\000\000\000\000\000\000\000"
      }
    }
  }
}
node {
  name: "load_images/strided_slice_3/stack_2"
  op: "Const"
  attr {
    key: "_output_shapes"
    value {
      list {
        shape {
          dim {
            size: 3
          }
        }
      }
    }
  }
  attr {
    key: "dtype"
    value {
      type: DT_INT32
    }
  }
  attr {
    key: "value"
    value {
      tensor {
        dtype: DT_INT32
        tensor_shape {
          dim {
            size: 3
          }
        }
        tensor_content: "\001\000\000\000\001\000\000\000\001\000\000\000"
      }
    }
  }
}
node {
  name: "load_images/strided_slice_3"
  op: "StridedSlice"
  input: "load_images/Identity"
  input: "load_images/strided_slice_3/stack"
  input: "load_images/strided_slice_3/stack_1"
  input: "load_images/strided_slice_3/stack_2"
  attr {
    key: "Index"
    value {
      type: DT_INT32
    }
  }
  attr {
    key: "T"
    value {
      type: DT_FLOAT
    }
  }
  attr {
    key: "_output_shapes"
    value {
      list {
        shape {
          dim {
            size: -1
          }
          dim {
            size: -1
          }
          dim {
            size: 3
          }
        }
      }
    }
  }
  attr {
    key: "begin_mask"
    value {
      i: 5
    }
  }
  attr {
    key: "ellipsis_mask"
    value {
      i: 0
    }
  }
  attr {
    key: "end_mask"
    value {
      i: 7
    }
  }
  attr {
    key: "new_axis_mask"
    value {
      i: 0
    }
  }
  attr {
    key: "shrink_axis_mask"
    value {
      i: 0
    }
  }
}
node {
  name: "load_images/preprocess_1/mul/y"
  op: "Const"
  attr {
    key: "_output_shapes"
    value {
      list {
        shape {
        }
      }
    }
  }
  attr {
    key: "dtype"
    value {
      type: DT_FLOAT
    }
  }
  attr {
    key: "value"
    value {
      tensor {
        dtype: DT_FLOAT
        tensor_shape {
        }
        float_val: 2.0
      }
    }
  }
}
node {
  name: "load_images/preprocess_1/mul"
  op: "Mul"
  input: "load_images/strided_slice_3"
  input: "load_images/preprocess_1/mul/y"
  attr {
    key: "T"
    value {
      type: DT_FLOAT
    }
  }
  attr {
    key: "_output_shapes"
    value {
      list {
        shape {
          dim {
            size: -1
          }
          dim {
            size: -1
          }
          dim {
            size: 3
          }
        }
      }
    }
  }
}
node {
  name: "load_images/preprocess_1/sub/y"
  op: "Const"
  attr {
    key: "_output_shapes"
    value {
      list {
        shape {
        }
      }
    }
  }
  attr {
    key: "dtype"
    value {
      type: DT_FLOAT
    }
  }
  attr {
    key: "value"
    value {
      tensor {
        dtype: DT_FLOAT
        tensor_shape {
        }
        float_val: 1.0
      }
    }
  }
}
node {
  name: "load_images/preprocess_1/sub"
  op: "Sub"
  input: "load_images/preprocess_1/mul"
  input: "load_images/preprocess_1/sub/y"
  attr {
    key: "T"
    value {
      type: DT_FLOAT
    }
  }
  attr {
    key: "_output_shapes"
    value {
      list {
        shape {
          dim {
            size: -1
          }
          dim {
            size: -1
          }
          dim {
            size: 3
          }
        }
      }
    }
  }
}
node {
  name: "input_images/resize_images/ExpandDims/dim"
  op: "Const"
  attr {
    key: "_output_shapes"
    value {
      list {
        shape {
        }
      }
    }
  }
  attr {
    key: "dtype"
    value {
      type: DT_INT32
    }
  }
  attr {
    key: "value"
    value {
      tensor {
        dtype: DT_INT32
        tensor_shape {
        }
        int_val: 0
      }
    }
  }
}
node {
  name: "input_images/resize_images/ExpandDims"
  op: "ExpandDims"
  input: "load_images/preprocess_1/sub"
  input: "input_images/resize_images/ExpandDims/dim"
  attr {
    key: "T"
    value {
      type: DT_FLOAT
    }
  }
  attr {
    key: "Tdim"
    value {
      type: DT_INT32
    }
  }
  attr {
    key: "_output_shapes"
    value {
      list {
        shape {
          dim {
            size: 1
          }
          dim {
            size: -1
          }
          dim {
            size: -1
          }
          dim {
            size: 3
          }
        }
      }
    }
  }
}
node {
  name: "input_images/resize_images/size"
  op: "Const"
  attr {
    key: "_output_shapes"
    value {
      list {
        shape {
          dim {
            size: 2
          }
        }
      }
    }
  }
  attr {
    key: "dtype"
    value {
      type: DT_INT32
    }
  }
  attr {
    key: "value"
    value {
      tensor {
        dtype: DT_INT32
        tensor_shape {
          dim {
            size: 2
          }
        }
        tensor_content: "\000\001\000\000\000\001\000\000"
      }
    }
  }
}
node {
  name: "input_images/resize_images/ResizeArea"
  op: "ResizeArea"
  input: "input_images/resize_images/ExpandDims"
  input: "input_images/resize_images/size"
  attr {
    key: "T"
    value {
      type: DT_FLOAT
    }
  }
  attr {
    key: "_output_shapes"
    value {
      list {
        shape {
          dim {
            size: 1
          }
          dim {
            size: 256
          }
          dim {
            size: 256
          }
          dim {
            size: 3
          }
        }
      }
    }
  }
  attr {
    key: "align_corners"
    value {
      b: false
    }
  }
}
node {
  name: "input_images/resize_images/Squeeze"
  op: "Squeeze"
  input: "input_images/resize_images/ResizeArea"
  attr {
    key: "T"
    value {
      type: DT_FLOAT
    }
  }
  attr {
    key: "_output_shapes"
    value {
      list {
        shape {
          dim {
            size: 256
          }
          dim {
            size: 256
          }
          dim {
            size: 3
          }
        }
      }
    }
  }
  attr {
    key: "squeeze_dims"
    value {
      list {
        i: 0
      }
    }
  }
}
node {
  name: "input_images/random_uniform/shape"
  op: "Const"
  attr {
    key: "_output_shapes"
    value {
      list {
        shape {
          dim {
            size: 1
          }
        }
      }
    }
  }
  attr {
    key: "dtype"
    value {
      type: DT_INT32
    }
  }
  attr {
    key: "value"
    value {
      tensor {
        dtype: DT_INT32
        tensor_shape {
          dim {
            size: 1
          }
        }
        int_val: 2
      }
    }
  }
}
node {
  name: "input_images/random_uniform/min"
  op: "Const"
  attr {
    key: "_output_shapes"
    value {
      list {
        shape {
        }
      }
    }
  }
  attr {
    key: "dtype"
    value {
      type: DT_FLOAT
    }
  }
  attr {
    key: "value"
    value {
      tensor {
        dtype: DT_FLOAT
        tensor_shape {
        }
        float_val: 0.0
      }
    }
  }
}
node {
  name: "input_images/random_uniform/max"
  op: "Const"
  attr {
    key: "_output_shapes"
    value {
      list {
        shape {
        }
      }
    }
  }
  attr {
    key: "dtype"
    value {
      type: DT_FLOAT
    }
  }
  attr {
    key: "value"
    value {
      tensor {
        dtype: DT_FLOAT
        tensor_shape {
        }
        float_val: 1.0
      }
    }
  }
}
node {
  name: "input_images/random_uniform/RandomUniform"
  op: "RandomUniform"
  input: "input_images/random_uniform/shape"
  attr {
    key: "T"
    value {
      type: DT_INT32
    }
  }
  attr {
    key: "_output_shapes"
    value {
      list {
        shape {
          dim {
            size: 2
          }
        }
      }
    }
  }
  attr {
    key: "dtype"
    value {
      type: DT_FLOAT
    }
  }
  attr {
    key: "seed"
    value {
      i: 2071349299
    }
  }
  attr {
    key: "seed2"
    value {
      i: 1225669621
    }
  }
}
node {
  name: "input_images/random_uniform/sub"
  op: "Sub"
  input: "input_images/random_uniform/max"
  input: "input_images/random_uniform/min"
  attr {
    key: "T"
    value {
      type: DT_FLOAT
    }
  }
  attr {
    key: "_output_shapes"
    value {
      list {
        shape {
        }
      }
    }
  }
}
node {
  name: "input_images/random_uniform/mul"
  op: "Mul"
  input: "input_images/random_uniform/RandomUniform"
  input: "input_images/random_uniform/sub"
  attr {
    key: "T"
    value {
      type: DT_FLOAT
    }
  }
  attr {
    key: "_output_shapes"
    value {
      list {
        shape {
          dim {
            size: 2
          }
        }
      }
    }
  }
}
node {
  name: "input_images/random_uniform"
  op: "Add"
  input: "input_images/random_uniform/mul"
  input: "input_images/random_uniform/min"
  attr {
    key: "T"
    value {
      type: DT_FLOAT
    }
  }
  attr {
    key: "_output_shapes"
    value {
      list {
        shape {
          dim {
            size: 2
          }
        }
      }
    }
  }
}
node {
  name: "input_images/Floor"
  op: "Floor"
  input: "input_images/random_uniform"
  attr {
    key: "T"
    value {
      type: DT_FLOAT
    }
  }
  attr {
    key: "_output_shapes"
    value {
      list {
        shape {
          dim {
            size: 2
          }
        }
      }
    }
  }
}
node {
  name: "input_images/Cast"
  op: "Cast"
  input: "input_images/Floor"
  attr {
    key: "DstT"
    value {
      type: DT_INT32
    }
  }
  attr {
    key: "SrcT"
    value {
      type: DT_FLOAT
    }
  }
  attr {
    key: "_output_shapes"
    value {
      list {
        shape {
          dim {
            size: 2
          }
        }
      }
    }
  }
}
node {
  name: "target_images/resize_images/ExpandDims/dim"
  op: "Const"
  attr {
    key: "_output_shapes"
    value {
      list {
        shape {
        }
      }
    }
  }
  attr {
    key: "dtype"
    value {
      type: DT_INT32
    }
  }
  attr {
    key: "value"
    value {
      tensor {
        dtype: DT_INT32
        tensor_shape {
        }
        int_val: 0
      }
    }
  }
}
node {
  name: "target_images/resize_images/ExpandDims"
  op: "ExpandDims"
  input: "load_images/preprocess/sub"
  input: "target_images/resize_images/ExpandDims/dim"
  attr {
    key: "T"
    value {
      type: DT_FLOAT
    }
  }
  attr {
    key: "Tdim"
    value {
      type: DT_INT32
    }
  }
  attr {
    key: "_output_shapes"
    value {
      list {
        shape {
          dim {
            size: 1
          }
          dim {
            size: -1
          }
          dim {
            size: -1
          }
          dim {
            size: 3
          }
        }
      }
    }
  }
}
node {
  name: "target_images/resize_images/size"
  op: "Const"
  attr {
    key: "_output_shapes"
    value {
      list {
        shape {
          dim {
            size: 2
          }
        }
      }
    }
  }
  attr {
    key: "dtype"
    value {
      type: DT_INT32
    }
  }
  attr {
    key: "value"
    value {
      tensor {
        dtype: DT_INT32
        tensor_shape {
          dim {
            size: 2
          }
        }
        tensor_content: "\000\001\000\000\000\001\000\000"
      }
    }
  }
}
node {
  name: "target_images/resize_images/ResizeArea"
  op: "ResizeArea"
  input: "target_images/resize_images/ExpandDims"
  input: "target_images/resize_images/size"
  attr {
    key: "T"
    value {
      type: DT_FLOAT
    }
  }
  attr {
    key: "_output_shapes"
    value {
      list {
        shape {
          dim {
            size: 1
          }
          dim {
            size: 256
          }
          dim {
            size: 256
          }
          dim {
            size: 3
          }
        }
      }
    }
  }
  attr {
    key: "align_corners"
    value {
      b: false
    }
  }
}
node {
  name: "target_images/resize_images/Squeeze"
  op: "Squeeze"
  input: "target_images/resize_images/ResizeArea"
  attr {
    key: "T"
    value {
      type: DT_FLOAT
    }
  }
  attr {
    key: "_output_shapes"
    value {
      list {
        shape {
          dim {
            size: 256
          }
          dim {
            size: 256
          }
          dim {
            size: 3
          }
        }
      }
    }
  }
  attr {
    key: "squeeze_dims"
    value {
      list {
        i: 0
      }
    }
  }
}
node {
  name: "target_images/random_uniform/shape"
  op: "Const"
  attr {
    key: "_output_shapes"
    value {
      list {
        shape {
          dim {
            size: 1
          }
        }
      }
    }
  }
  attr {
    key: "dtype"
    value {
      type: DT_INT32
    }
  }
  attr {
    key: "value"
    value {
      tensor {
        dtype: DT_INT32
        tensor_shape {
          dim {
            size: 1
          }
        }
        int_val: 2
      }
    }
  }
}
node {
  name: "target_images/random_uniform/min"
  op: "Const"
  attr {
    key: "_output_shapes"
    value {
      list {
        shape {
        }
      }
    }
  }
  attr {
    key: "dtype"
    value {
      type: DT_FLOAT
    }
  }
  attr {
    key: "value"
    value {
      tensor {
        dtype: DT_FLOAT
        tensor_shape {
        }
        float_val: 0.0
      }
    }
  }
}
node {
  name: "target_images/random_uniform/max"
  op: "Const"
  attr {
    key: "_output_shapes"
    value {
      list {
        shape {
        }
      }
    }
  }
  attr {
    key: "dtype"
    value {
      type: DT_FLOAT
    }
  }
  attr {
    key: "value"
    value {
      tensor {
        dtype: DT_FLOAT
        tensor_shape {
        }
        float_val: 1.0
      }
    }
  }
}
node {
  name: "target_images/random_uniform/RandomUniform"
  op: "RandomUniform"
  input: "target_images/random_uniform/shape"
  attr {
    key: "T"
    value {
      type: DT_INT32
    }
  }
  attr {
    key: "_output_shapes"
    value {
      list {
        shape {
          dim {
            size: 2
          }
        }
      }
    }
  }
  attr {
    key: "dtype"
    value {
      type: DT_FLOAT
    }
  }
  attr {
    key: "seed"
    value {
      i: 2071349299
    }
  }
  attr {
    key: "seed2"
    value {
      i: 1225669621
    }
  }
}
node {
  name: "target_images/random_uniform/sub"
  op: "Sub"
  input: "target_images/random_uniform/max"
  input: "target_images/random_uniform/min"
  attr {
    key: "T"
    value {
      type: DT_FLOAT
    }
  }
  attr {
    key: "_output_shapes"
    value {
      list {
        shape {
        }
      }
    }
  }
}
node {
  name: "target_images/random_uniform/mul"
  op: "Mul"
  input: "target_images/random_uniform/RandomUniform"
  input: "target_images/random_uniform/sub"
  attr {
    key: "T"
    value {
      type: DT_FLOAT
    }
  }
  attr {
    key: "_output_shapes"
    value {
      list {
        shape {
          dim {
            size: 2
          }
        }
      }
    }
  }
}
node {
  name: "target_images/random_uniform"
  op: "Add"
  input: "target_images/random_uniform/mul"
  input: "target_images/random_uniform/min"
  attr {
    key: "T"
    value {
      type: DT_FLOAT
    }
  }
  attr {
    key: "_output_shapes"
    value {
      list {
        shape {
          dim {
            size: 2
          }
        }
      }
    }
  }
}
node {
  name: "target_images/Floor"
  op: "Floor"
  input: "target_images/random_uniform"
  attr {
    key: "T"
    value {
      type: DT_FLOAT
    }
  }
  attr {
    key: "_output_shapes"
    value {
      list {
        shape {
          dim {
            size: 2
          }
        }
      }
    }
  }
}
node {
  name: "target_images/Cast"
  op: "Cast"
  input: "target_images/Floor"
  attr {
    key: "DstT"
    value {
      type: DT_INT32
    }
  }
  attr {
    key: "SrcT"
    value {
      type: DT_FLOAT
    }
  }
  attr {
    key: "_output_shapes"
    value {
      list {
        shape {
          dim {
            size: 2
          }
        }
      }
    }
  }
}
node {
  name: "batch/Const"
  op: "Const"
  attr {
    key: "_output_shapes"
    value {
      list {
        shape {
        }
      }
    }
  }
  attr {
    key: "dtype"
    value {
      type: DT_BOOL
    }
  }
  attr {
    key: "value"
    value {
      tensor {
        dtype: DT_BOOL
        tensor_shape {
        }
        bool_val: true
      }
    }
  }
}
node {
  name: "batch/fifo_queue"
  op: "FIFOQueueV2"
  attr {
    key: "_output_shapes"
    value {
      list {
        shape {
        }
      }
    }
  }
  attr {
    key: "capacity"
    value {
      i: 32
    }
  }
  attr {
    key: "component_types"
    value {
      list {
        type: DT_STRING
        type: DT_FLOAT
        type: DT_FLOAT
      }
    }
  }
  attr {
    key: "container"
    value {
      s: ""
    }
  }
  attr {
    key: "shapes"
    value {
      list {
        shape {
        }
        shape {
          dim {
            size: 256
          }
          dim {
            size: 256
          }
          dim {
            size: 3
          }
        }
        shape {
          dim {
            size: 256
          }
          dim {
            size: 256
          }
          dim {
            size: 3
          }
        }
      }
    }
  }
  attr {
    key: "shared_name"
    value {
      s: ""
    }
  }
}
node {
  name: "batch/fifo_queue_enqueue"
  op: "QueueEnqueueV2"
  input: "batch/fifo_queue"
  input: "load_images/ReaderReadV2"
  input: "input_images/resize_images/Squeeze"
  input: "target_images/resize_images/Squeeze"
  attr {
    key: "Tcomponents"
    value {
      list {
        type: DT_STRING
        type: DT_FLOAT
        type: DT_FLOAT
      }
    }
  }
  attr {
    key: "timeout_ms"
    value {
      i: -1
    }
  }
}
node {
  name: "batch/fifo_queue_Close"
  op: "QueueCloseV2"
  input: "batch/fifo_queue"
  attr {
    key: "cancel_pending_enqueues"
    value {
      b: false
    }
  }
}
node {
  name: "batch/fifo_queue_Close_1"
  op: "QueueCloseV2"
  input: "batch/fifo_queue"
  attr {
    key: "cancel_pending_enqueues"
    value {
      b: true
    }
  }
}
node {
  name: "batch/fifo_queue_Size"
  op: "QueueSizeV2"
  input: "batch/fifo_queue"
  attr {
    key: "_output_shapes"
    value {
      list {
        shape {
        }
      }
    }
  }
}
node {
  name: "batch/ToFloat"
  op: "Cast"
  input: "batch/fifo_queue_Size"
  attr {
    key: "DstT"
    value {
      type: DT_FLOAT
    }
  }
  attr {
    key: "SrcT"
    value {
      type: DT_INT32
    }
  }
  attr {
    key: "_output_shapes"
    value {
      list {
        shape {
        }
      }
    }
  }
}
node {
  name: "batch/mul/y"
  op: "Const"
  attr {
    key: "_output_shapes"
    value {
      list {
        shape {
        }
      }
    }
  }
  attr {
    key: "dtype"
    value {
      type: DT_FLOAT
    }
  }
  attr {
    key: "value"
    value {
      tensor {
        dtype: DT_FLOAT
        tensor_shape {
        }
        float_val: 0.03125
      }
    }
  }
}
node {
  name: "batch/mul"
  op: "Mul"
  input: "batch/ToFloat"
  input: "batch/mul/y"
  attr {
    key: "T"
    value {
      type: DT_FLOAT
    }
  }
  attr {
    key: "_output_shapes"
    value {
      list {
        shape {
        }
      }
    }
  }
}
node {
  name: "batch/fraction_of_32_full/tags"
  op: "Const"
  attr {
    key: "_output_shapes"
    value {
      list {
        shape {
        }
      }
    }
  }
  attr {
    key: "dtype"
    value {
      type: DT_STRING
    }
  }
  attr {
    key: "value"
    value {
      tensor {
        dtype: DT_STRING
        tensor_shape {
        }
        string_val: "batch/fraction_of_32_full"
      }
    }
  }
}
node {
  name: "batch/fraction_of_32_full"
  op: "ScalarSummary"
  input: "batch/fraction_of_32_full/tags"
  input: "batch/mul"
  attr {
    key: "T"
    value {
      type: DT_FLOAT
    }
  }
  attr {
    key: "_output_shapes"
    value {
      list {
        shape {
        }
      }
    }
  }
}
node {
  name: "batch/n"
  op: "Const"
  attr {
    key: "_output_shapes"
    value {
      list {
        shape {
        }
      }
    }
  }
  attr {
    key: "dtype"
    value {
      type: DT_INT32
    }
  }
  attr {
    key: "value"
    value {
      tensor {
        dtype: DT_INT32
        tensor_shape {
        }
        int_val: 1
      }
    }
  }
}
node {
  name: "batch"
  op: "QueueDequeueManyV2"
  input: "batch/fifo_queue"
  input: "batch/n"
  attr {
    key: "_output_shapes"
    value {
      list {
        shape {
          dim {
            size: 1
          }
        }
        shape {
          dim {
            size: 1
          }
          dim {
            size: 256
          }
          dim {
            size: 256
          }
          dim {
            size: 3
          }
        }
        shape {
          dim {
            size: 1
          }
          dim {
            size: 256
          }
          dim {
            size: 256
          }
          dim {
            size: 3
          }
        }
      }
    }
  }
  attr {
    key: "component_types"
    value {
      list {
        type: DT_STRING
        type: DT_FLOAT
        type: DT_FLOAT
      }
    }
  }
  attr {
    key: "timeout_ms"
    value {
      i: -1
    }
  }
}
node {
  name: "generator/encoder_1/conv/filter/Initializer/random_normal/shape"
  op: "Const"
  attr {
    key: "_class"
    value {
      list {
        s: "loc:@generator/encoder_1/conv/filter"
      }
    }
  }
  attr {
    key: "_output_shapes"
    value {
      list {
        shape {
          dim {
            size: 4
          }
        }
      }
    }
  }
  attr {
    key: "dtype"
    value {
      type: DT_INT32
    }
  }
  attr {
    key: "value"
    value {
      tensor {
        dtype: DT_INT32
        tensor_shape {
          dim {
            size: 4
          }
        }
        tensor_content: "\004\000\000\000\004\000\000\000\003\000\000\000@\000\000\000"
      }
    }
  }
}
node {
  name: "generator/encoder_1/conv/filter/Initializer/random_normal/mean"
  op: "Const"
  attr {
    key: "_class"
    value {
      list {
        s: "loc:@generator/encoder_1/conv/filter"
      }
    }
  }
  attr {
    key: "_output_shapes"
    value {
      list {
        shape {
        }
      }
    }
  }
  attr {
    key: "dtype"
    value {
      type: DT_FLOAT
    }
  }
  attr {
    key: "value"
    value {
      tensor {
        dtype: DT_FLOAT
        tensor_shape {
        }
        float_val: 0.0
      }
    }
  }
}
node {
  name: "generator/encoder_1/conv/filter/Initializer/random_normal/stddev"
  op: "Const"
  attr {
    key: "_class"
    value {
      list {
        s: "loc:@generator/encoder_1/conv/filter"
      }
    }
  }
  attr {
    key: "_output_shapes"
    value {
      list {
        shape {
        }
      }
    }
  }
  attr {
    key: "dtype"
    value {
      type: DT_FLOAT
    }
  }
  attr {
    key: "value"
    value {
      tensor {
        dtype: DT_FLOAT
        tensor_shape {
        }
        float_val: 0.02
      }
    }
  }
}
node {
  name: "generator/encoder_1/conv/filter/Initializer/random_normal/RandomStandardNormal"
  op: "RandomStandardNormal"
  input: "generator/encoder_1/conv/filter/Initializer/random_normal/shape"
  attr {
    key: "T"
    value {
      type: DT_INT32
    }
  }
  attr {
    key: "_class"
    value {
      list {
        s: "loc:@generator/encoder_1/conv/filter"
      }
    }
  }
  attr {
    key: "_output_shapes"
    value {
      list {
        shape {
          dim {
            size: 4
          }
          dim {
            size: 4
          }
          dim {
            size: 3
          }
          dim {
            size: 64
          }
        }
      }
    }
  }
  attr {
    key: "dtype"
    value {
      type: DT_FLOAT
    }
  }
  attr {
    key: "seed"
    value {
      i: 2071349299
    }
  }
  attr {
    key: "seed2"
    value {
      i: 116
    }
  }
}
node {
  name: "generator/encoder_1/conv/filter/Initializer/random_normal/mul"
  op: "Mul"
  input: "generator/encoder_1/conv/filter/Initializer/random_normal/RandomStandardNormal"
  input: "generator/encoder_1/conv/filter/Initializer/random_normal/stddev"
  attr {
    key: "T"
    value {
      type: DT_FLOAT
    }
  }
  attr {
    key: "_class"
    value {
      list {
        s: "loc:@generator/encoder_1/conv/filter"
      }
    }
  }
  attr {
    key: "_output_shapes"
    value {
      list {
        shape {
          dim {
            size: 4
          }
          dim {
            size: 4
          }
          dim {
            size: 3
          }
          dim {
            size: 64
          }
        }
      }
    }
  }
}
node {
  name: "generator/encoder_1/conv/filter/Initializer/random_normal"
  op: "Add"
  input: "generator/encoder_1/conv/filter/Initializer/random_normal/mul"
  input: "generator/encoder_1/conv/filter/Initializer/random_normal/mean"
  attr {
    key: "T"
    value {
      type: DT_FLOAT
    }
  }
  attr {
    key: "_class"
    value {
      list {
        s: "loc:@generator/encoder_1/conv/filter"
      }
    }
  }
  attr {
    key: "_output_shapes"
    value {
      list {
        shape {
          dim {
            size: 4
          }
          dim {
            size: 4
          }
          dim {
            size: 3
          }
          dim {
            size: 64
          }
        }
      }
    }
  }
}
node {
  name: "generator/encoder_1/conv/filter"
  op: "VariableV2"
  attr {
    key: "_class"
    value {
      list {
        s: "loc:@generator/encoder_1/conv/filter"
      }
    }
  }
  attr {
    key: "_output_shapes"
    value {
      list {
        shape {
          dim {
            size: 4
          }
          dim {
            size: 4
          }
          dim {
            size: 3
          }
          dim {
            size: 64
          }
        }
      }
    }
  }
  attr {
    key: "container"
    value {
      s: ""
    }
  }
  attr {
    key: "dtype"
    value {
      type: DT_FLOAT
    }
  }
  attr {
    key: "shape"
    value {
      shape {
        dim {
          size: 4
        }
        dim {
          size: 4
        }
        dim {
          size: 3
        }
        dim {
          size: 64
        }
      }
    }
  }
  attr {
    key: "shared_name"
    value {
      s: ""
    }
  }
}
node {
  name: "generator/encoder_1/conv/filter/Assign"
  op: "Assign"
  input: "generator/encoder_1/conv/filter"
  input: "generator/encoder_1/conv/filter/Initializer/random_normal"
  attr {
    key: "T"
    value {
      type: DT_FLOAT
    }
  }
  attr {
    key: "_class"
    value {
      list {
        s: "loc:@generator/encoder_1/conv/filter"
      }
    }
  }
  attr {
    key: "_output_shapes"
    value {
      list {
        shape {
          dim {
            size: 4
          }
          dim {
            size: 4
          }
          dim {
            size: 3
          }
          dim {
            size: 64
          }
        }
      }
    }
  }
  attr {
    key: "use_locking"
    value {
      b: true
    }
  }
  attr {
    key: "validate_shape"
    value {
      b: true
    }
  }
}
node {
  name: "generator/encoder_1/conv/filter/read"
  op: "Identity"
  input: "generator/encoder_1/conv/filter"
  attr {
    key: "T"
    value {
      type: DT_FLOAT
    }
  }
  attr {
    key: "_class"
    value {
      list {
        s: "loc:@generator/encoder_1/conv/filter"
      }
    }
  }
  attr {
    key: "_output_shapes"
    value {
      list {
        shape {
          dim {
            size: 4
          }
          dim {
            size: 4
          }
          dim {
            size: 3
          }
          dim {
            size: 64
          }
        }
      }
    }
  }
}
node {
  name: "generator/encoder_1/conv/Pad/paddings"
  op: "Const"
  attr {
    key: "_output_shapes"
    value {
      list {
        shape {
          dim {
            size: 4
          }
          dim {
            size: 2
          }
        }
      }
    }
  }
  attr {
    key: "dtype"
    value {
      type: DT_INT32
    }
  }
  attr {
    key: "value"
    value {
      tensor {
        dtype: DT_INT32
        tensor_shape {
          dim {
            size: 4
          }
          dim {
            size: 2
          }
        }
        tensor_content: "…"
      }
    }
  }
}
node {
  name: "generator/encoder_1/conv/Pad"
  op: "Pad"
  input: "batch:1"
  input: "generator/encoder_1/conv/Pad/paddings"
  attr {
    key: "T"
    value {
      type: DT_FLOAT
    }
  }
  attr {
    key: "Tpaddings"
    value {
      type: DT_INT32
    }
  }
  attr {
    key: "_output_shapes"
    value {
      list {
        shape {
          dim {
            size: 1
          }
          dim {
            size: 258
          }
          dim {
            size: 258
          }
          dim {
            size: 3
          }
        }
      }
    }
  }
}
node {
  name: "generator/encoder_1/conv/Conv2D"
  op: "Conv2D"
  input: "generator/encoder_1/conv/Pad"
  input: "generator/encoder_1/conv/filter/read"
  attr {
    key: "T"
    value {
      type: DT_FLOAT
    }
  }
  attr {
    key: "_output_shapes"
    value {
      list {
        shape {
          dim {
            size: 1
          }
          dim {
            size: 128
          }
          dim {
            size: 128
          }
          dim {
            size: 64
          }
        }
      }
    }
  }
  attr {
    key: "data_format"
    value {
      s: "NHWC"
    }
  }
  attr {
    key: "dilations"
    value {
      list {
        i: 1
        i: 1
        i: 1
        i: 1
      }
    }
  }
  attr {
    key: "padding"
    value {
      s: "VALID"
    }
  }
  attr {
    key: "strides"
    value {
      list {
        i: 1
        i: 2
        i: 2
        i: 1
      }
    }
  }
  attr {
    key: "use_cudnn_on_gpu"
    value {
      b: true
    }
  }
}
node {
  name: "generator/encoder_2/lrelu/Identity"
  op: "Identity"
  input: "generator/encoder_1/conv/Conv2D"
  attr {
    key: "T"
    value {
      type: DT_FLOAT
    }
  }
  attr {
    key: "_output_shapes"
    value {
      list {
        shape {
          dim {
            size: 1
          }
          dim {
            size: 128
          }
          dim {
            size: 128
          }
          dim {
            size: 64
          }
        }
      }
    }
  }
}
node {
  name: "generator/encoder_2/lrelu/mul/x"
  op: "Const"
  attr {
    key: "_output_shapes"
    value {
      list {
        shape {
        }
      }
    }
  }
  attr {
    key: "dtype"
    value {
      type: DT_FLOAT
    }
  }
  attr {
    key: "value"
    value {
      tensor {
        dtype: DT_FLOAT
        tensor_shape {
        }
        float_val: 0.6
      }
    }
  }
}
node {
  name: "generator/encoder_2/lrelu/mul"
  op: "Mul"
  input: "generator/encoder_2/lrelu/mul/x"
  input: "generator/encoder_2/lrelu/Identity"
  attr {
    key: "T"
    value {
      type: DT_FLOAT
    }
  }
  attr {
    key: "_output_shapes"
    value {
      list {
        shape {
          dim {
            size: 1
          }
          dim {
            size: 128
          }
          dim {
            size: 128
          }
          dim {
            size: 64
          }
        }
      }
    }
  }
}
node {
  name: "generator/encoder_2/lrelu/Abs"
  op: "Abs"
  input: "generator/encoder_2/lrelu/Identity"
  attr {
    key: "T"
    value {
      type: DT_FLOAT
    }
  }
  attr {
    key: "_output_shapes"
    value {
      list {
        shape {
          dim {
            size: 1
          }
          dim {
            size: 128
          }
          dim {
            size: 128
          }
          dim {
            size: 64
          }
        }
      }
    }
  }
}
node {
  name: "generator/encoder_2/lrelu/mul_1/x"
  op: "Const"
  attr {
    key: "_output_shapes"
    value {
      list {
        shape {
        }
      }
    }
  }
  attr {
    key: "dtype"
    value {
      type: DT_FLOAT
    }
  }
  attr {
    key: "value"
    value {
      tensor {
        dtype: DT_FLOAT
        tensor_shape {
        }
        float_val: 0.4
      }
    }
  }
}
node {
  name: "generator/encoder_2/lrelu/mul_1"
  op: "Mul"
  input: "generator/encoder_2/lrelu/mul_1/x"
  input: "generator/encoder_2/lrelu/Abs"
  attr {
    key: "T"
    value {
      type: DT_FLOAT
    }
  }
  attr {
    key: "_output_shapes"
    value {
      list {
        shape {
          dim {
            size: 1
          }
          dim {
            size: 128
          }
          dim {
            size: 128
          }
          dim {
            size: 64
          }
        }
      }
    }
  }
}
node {
  name: "generator/encoder_2/lrelu/add"
  op: "Add"
  input: "generator/encoder_2/lrelu/mul"
  input: "generator/encoder_2/lrelu/mul_1"
  attr {
    key: "T"
    value {
      type: DT_FLOAT
    }
  }
  attr {
    key: "_output_shapes"
    value {
      list {
        shape {
          dim {
            size: 1
          }
          dim {
            size: 128
          }
          dim {
            size: 128
          }
          dim {
            size: 64
          }
        }
      }
    }
  }
}
node {
  name: "generator/encoder_2/conv/filter/Initializer/random_normal/shape"
  op: "Const"
  attr {
    key: "_class"
    value {
      list {
        s: "loc:@generator/encoder_2/conv/filter"
      }
    }
  }
  attr {
    key: "_output_shapes"
    value {
      list {
        shape {
          dim {
            size: 4
          }
        }
      }
    }
  }
  attr {
    key: "dtype"
    value {
      type: DT_INT32
    }
  }
  attr {
    key: "value"
    value {
      tensor {
        dtype: DT_INT32
        tensor_shape {
          dim {
            size: 4
          }
        }
        tensor_content: "\004\000\000\000\004\000\000\000@\000\000\000\200\000\000\000"
      }
    }
  }
}
node {
  name: "generator/encoder_2/conv/filter/Initializer/random_normal/mean"
  op: "Const"
  attr {
    key: "_class"
    value {
      list {
        s: "loc:@generator/encoder_2/conv/filter"
      }
    }
  }
  attr {
    key: "_output_shapes"
    value {
      list {
        shape {
        }
      }
    }
  }
  attr {
    key: "dtype"
    value {
      type: DT_FLOAT
    }
  }
  attr {
    key: "value"
    value {
      tensor {
        dtype: DT_FLOAT
        tensor_shape {
        }
        float_val: 0.0
      }
    }
  }
}
node {
  name: "generator/encoder_2/conv/filter/Initializer/random_normal/stddev"
  op: "Const"
  attr {
    key: "_class"
    value {
      list {
        s: "loc:@generator/encoder_2/conv/filter"
      }
    }
  }
  attr {
    key: "_output_shapes"
    value {
      list {
        shape {
        }
      }
    }
  }
  attr {
    key: "dtype"
    value {
      type: DT_FLOAT
    }
  }
  attr {
    key: "value"
    value {
      tensor {
        dtype: DT_FLOAT
        tensor_shape {
        }
        float_val: 0.02
      }
    }
  }
}
node {
  name: "generator/encoder_2/conv/filter/Initializer/random_normal/RandomStandardNormal"
  op: "RandomStandardNormal"
  input: "generator/encoder_2/conv/filter/Initializer/random_normal/shape"
  attr {
    key: "T"
    value {
      type: DT_INT32
    }
  }
  attr {
    key: "_class"
    value {
      list {
        s: "loc:@generator/encoder_2/conv/filter"
      }
    }
  }
  attr {
    key: "_output_shapes"
    value {
      list {
        shape {
          dim {
            size: 4
          }
          dim {
            size: 4
          }
          dim {
            size: 64
          }
          dim {
            size: 128
          }
        }
      }
    }
  }
  attr {
    key: "dtype"
    value {
      type: DT_FLOAT
    }
  }
  attr {
    key: "seed"
    value {
      i: 2071349299
    }
  }
  attr {
    key: "seed2"
    value {
      i: 135
    }
  }
}
node {
  name: "generator/encoder_2/conv/filter/Initializer/random_normal/mul"
  op: "Mul"
  input: "generator/encoder_2/conv/filter/Initializer/random_normal/RandomStandardNormal"
  input: "generator/encoder_2/conv/filter/Initializer/random_normal/stddev"
  attr {
    key: "T"
    value {
      type: DT_FLOAT
    }
  }
  attr {
    key: "_class"
    value {
      list {
        s: "loc:@generator/encoder_2/conv/filter"
      }
    }
  }
  attr {
    key: "_output_shapes"
    value {
      list {
        shape {
          dim {
            size: 4
          }
          dim {
            size: 4
          }
          dim {
            size: 64
          }
          dim {
            size: 128
          }
        }
      }
    }
  }
}
node {
  name: "generator/encoder_2/conv/filter/Initializer/random_normal"
  op: "Add"
  input: "generator/encoder_2/conv/filter/Initializer/random_normal/mul"
  input: "generator/encoder_2/conv/filter/Initializer/random_normal/mean"
  attr {
    key: "T"
    value {
      type: DT_FLOAT
    }
  }
  attr {
    key: "_class"
    value {
      list {
        s: "loc:@generator/encoder_2/conv/filter"
      }
    }
  }
  attr {
    key: "_output_shapes"
    value {
      list {
        shape {
          dim {
            size: 4
          }
          dim {
            size: 4
          }
          dim {
            size: 64
          }
          dim {
            size: 128
          }
        }
      }
    }
  }
}
node {
  name: "generator/encoder_2/conv/filter"
  op: "VariableV2"
  attr {
    key: "_class"
    value {
      list {
        s: "loc:@generator/encoder_2/conv/filter"
      }
    }
  }
  attr {
    key: "_output_shapes"
    value {
      list {
        shape {
          dim {
            size: 4
          }
          dim {
            size: 4
          }
          dim {
            size: 64
          }
          dim {
            size: 128
          }
        }
      }
    }
  }
  attr {
    key: "container"
    value {
      s: ""
    }
  }
  attr {
    key: "dtype"
    value {
      type: DT_FLOAT
    }
  }
  attr {
    key: "shape"
    value {
      shape {
        dim {
          size: 4
        }
        dim {
          size: 4
        }
        dim {
          size: 64
        }
        dim {
          size: 128
        }
      }
    }
  }
  attr {
    key: "shared_name"
    value {
      s: ""
    }
  }
}
node {
  name: "generator/encoder_2/conv/filter/Assign"
  op: "Assign"
  input: "generator/encoder_2/conv/filter"
  input: "generator/encoder_2/conv/filter/Initializer/random_normal"
  attr {
    key: "T"
    value {
      type: DT_FLOAT
    }
  }
  attr {
    key: "_class"
    value {
      list {
        s: "loc:@generator/encoder_2/conv/filter"
      }
    }
  }
  attr {
    key: "_output_shapes"
    value {
      list {
        shape {
          dim {
            size: 4
          }
          dim {
            size: 4
          }
          dim {
            size: 64
          }
          dim {
            size: 128
          }
        }
      }
    }
  }
  attr {
    key: "use_locking"
    value {
      b: true
    }
  }
  attr {
    key: "validate_shape"
    value {
      b: true
    }
  }
}
node {
  name: "generator/encoder_2/conv/filter/read"
  op: "Identity"
  input: "generator/encoder_2/conv/filter"
  attr {
    key: "T"
    value {
      type: DT_FLOAT
    }
  }
  attr {
    key: "_class"
    value {
      list {
        s: "loc:@generator/encoder_2/conv/filter"
      }
    }
  }
  attr {
    key: "_output_shapes"
    value {
      list {
        shape {
          dim {
            size: 4
          }
          dim {
            size: 4
          }
          dim {
            size: 64
          }
          dim {
            size: 128
          }
        }
      }
    }
  }
}
node {
  name: "generator/encoder_2/conv/Pad/paddings"
  op: "Const"
  attr {
    key: "_output_shapes"
    value {
      list {
        shape {
          dim {
            size: 4
          }
          dim {
            size: 2
          }
        }
      }
    }
  }
  attr {
    key: "dtype"
    value {
      type: DT_INT32
    }
  }
  attr {
    key: "value"
    value {
      tensor {
        dtype: DT_INT32
        tensor_shape {
          dim {
            size: 4
          }
          dim {
            size: 2
          }
        }
        tensor_content: "…"
      }
    }
  }
}
node {
  name: "generator/encoder_2/conv/Pad"
  op: "Pad"
  input: "generator/encoder_2/lrelu/add"
  input: "generator/encoder_2/conv/Pad/paddings"
  attr {
    key: "T"
    value {
      type: DT_FLOAT
    }
  }
  attr {
    key: "Tpaddings"
    value {
      type: DT_INT32
    }
  }
  attr {
    key: "_output_shapes"
    value {
      list {
        shape {
          dim {
            size: 1
          }
          dim {
            size: 130
          }
          dim {
            size: 130
          }
          dim {
            size: 64
          }
        }
      }
    }
  }
}
node {
  name: "generator/encoder_2/conv/Conv2D"
  op: "Conv2D"
  input: "generator/encoder_2/conv/Pad"
  input: "generator/encoder_2/conv/filter/read"
  attr {
    key: "T"
    value {
      type: DT_FLOAT
    }
  }
  attr {
    key: "_output_shapes"
    value {
      list {
        shape {
          dim {
            size: 1
          }
          dim {
            size: 64
          }
          dim {
            size: 64
          }
          dim {
            size: 128
          }
        }
      }
    }
  }
  attr {
    key: "data_format"
    value {
      s: "NHWC"
    }
  }
  attr {
    key: "dilations"
    value {
      list {
        i: 1
        i: 1
        i: 1
        i: 1
      }
    }
  }
  attr {
    key: "padding"
    value {
      s: "VALID"
    }
  }
  attr {
    key: "strides"
    value {
      list {
        i: 1
        i: 2
        i: 2
        i: 1
      }
    }
  }
  attr {
    key: "use_cudnn_on_gpu"
    value {
      b: true
    }
  }
}
node {
  name: "generator/encoder_2/batchnorm/Identity"
  op: "Identity"
  input: "generator/encoder_2/conv/Conv2D"
  attr {
    key: "T"
    value {
      type: DT_FLOAT
    }
  }
  attr {
    key: "_output_shapes"
    value {
      list {
        shape {
          dim {
            size: 1
          }
          dim {
            size: 64
          }
          dim {
            size: 64
          }
          dim {
            size: 128
          }
        }
      }
    }
  }
}
node {
  name: "generator/encoder_2/batchnorm/offset/Initializer/zeros"
  op: "Const"
  attr {
    key: "_class"
    value {
      list {
        s: "loc:@generator/encoder_2/batchnorm/offset"
      }
    }
  }
  attr {
    key: "_output_shapes"
    value {
      list {
        shape {
          dim {
            size: 128
          }
        }
      }
    }
  }
  attr {
    key: "dtype"
    value {
      type: DT_FLOAT
    }
  }
  attr {
    key: "value"
    value {
      tensor {
        dtype: DT_FLOAT
        tensor_shape {
          dim {
            size: 128
          }
        }
        float_val: 0.0
      }
    }
  }
}
node {
  name: "generator/encoder_2/batchnorm/offset"
  op: "VariableV2"
  attr {
    key: "_class"
    value {
      list {
        s: "loc:@generator/encoder_2/batchnorm/offset"
      }
    }
  }
  attr {
    key: "_output_shapes"
    value {
      list {
        shape {
          dim {
            size: 128
          }
        }
      }
    }
  }
  attr {
    key: "container"
    value {
      s: ""
    }
  }
  attr {
    key: "dtype"
    value {
      type: DT_FLOAT
    }
  }
  attr {
    key: "shape"
    value {
      shape {
        dim {
          size: 128
        }
      }
    }
  }
  attr {
    key: "shared_name"
    value {
      s: ""
    }
  }
}
node {
  name: "generator/encoder_2/batchnorm/offset/Assign"
  op: "Assign"
  input: "generator/encoder_2/batchnorm/offset"
  input: "generator/encoder_2/batchnorm/offset/Initializer/zeros"
  attr {
    key: "T"
    value {
      type: DT_FLOAT
    }
  }
  attr {
    key: "_class"
    value {
      list {
        s: "loc:@generator/encoder_2/batchnorm/offset"
      }
    }
  }
  attr {
    key: "_output_shapes"
    value {
      list {
        shape {
          dim {
            size: 128
          }
        }
      }
    }
  }
  attr {
    key: "use_locking"
    value {
      b: true
    }
  }
  attr {
    key: "validate_shape"
    value {
      b: true
    }
  }
}
node {
  name: "generator/encoder_2/batchnorm/offset/read"
  op: "Identity"
  input: "generator/encoder_2/batchnorm/offset"
  attr {
    key: "T"
    value {
      type: DT_FLOAT
    }
  }
  attr {
    key: "_class"
    value {
      list {
        s: "loc:@generator/encoder_2/batchnorm/offset"
      }
    }
  }
  attr {
    key: "_output_shapes"
    value {
      list {
        shape {
          dim {
            size: 128
          }
        }
      }
    }
  }
}
node {
  name: "generator/encoder_2/batchnorm/scale/Initializer/random_normal/shape"
  op: "Const"
  attr {
    key: "_class"
    value {
      list {
        s: "loc:@generator/encoder_2/batchnorm/scale"
      }
    }
  }
  attr {
    key: "_output_shapes"
    value {
      list {
        shape {
          dim {
            size: 1
          }
        }
      }
    }
  }
  attr {
    key: "dtype"
    value {
      type: DT_INT32
    }
  }
  attr {
    key: "value"
    value {
      tensor {
        dtype: DT_INT32
        tensor_shape {
          dim {
            size: 1
          }
        }
        int_val: 128
      }
    }
  }
}
node {
  name: "generator/encoder_2/batchnorm/scale/Initializer/random_normal/mean"
  op: "Const"
  attr {
    key: "_class"
    value {
      list {
        s: "loc:@generator/encoder_2/batchnorm/scale"
      }
    }
  }
  attr {
    key: "_output_shapes"
    value {
      list {
        shape {
        }
      }
    }
  }
  attr {
    key: "dtype"
    value {
      type: DT_FLOAT
    }
  }
  attr {
    key: "value"
    value {
      tensor {
        dtype: DT_FLOAT
        tensor_shape {
        }
        float_val: 1.0
      }
    }
  }
}
node {
  name: "generator/encoder_2/batchnorm/scale/Initializer/random_normal/stddev"
  op: "Const"
  attr {
    key: "_class"
    value {
      list {
        s: "loc:@generator/encoder_2/batchnorm/scale"
      }
    }
  }
  attr {
    key: "_output_shapes"
    value {
      list {
        shape {
        }
      }
    }
  }
  attr {
    key: "dtype"
    value {
      type: DT_FLOAT
    }
  }
  attr {
    key: "value"
    value {
      tensor {
        dtype: DT_FLOAT
        tensor_shape {
        }
        float_val: 0.02
      }
    }
  }
}
node {
  name: "generator/encoder_2/batchnorm/scale/Initializer/random_normal/RandomStandardNormal"
  op: "RandomStandardNormal"
  input: "generator/encoder_2/batchnorm/scale/Initializer/random_normal/shape"
  attr {
    key: "T"
    value {
      type: DT_INT32
    }
  }
  attr {
    key: "_class"
    value {
      list {
        s: "loc:@generator/encoder_2/batchnorm/scale"
      }
    }
  }
  attr {
    key: "_output_shapes"
    value {
      list {
        shape {
          dim {
            size: 128
          }
        }
      }
    }
  }
  attr {
    key: "dtype"
    value {
      type: DT_FLOAT
    }
  }
  attr {
    key: "seed"
    value {
      i: 2071349299
    }
  }
  attr {
    key: "seed2"
    value {
      i: 152
    }
  }
}
node {
  name: "generator/encoder_2/batchnorm/scale/Initializer/random_normal/mul"
  op: "Mul"
  input: "generator/encoder_2/batchnorm/scale/Initializer/random_normal/RandomStandardNormal"
  input: "generator/encoder_2/batchnorm/scale/Initializer/random_normal/stddev"
  attr {
    key: "T"
    value {
      type: DT_FLOAT
    }
  }
  attr {
    key: "_class"
    value {
      list {
        s: "loc:@generator/encoder_2/batchnorm/scale"
      }
    }
  }
  attr {
    key: "_output_shapes"
    value {
      list {
        shape {
          dim {
            size: 128
          }
        }
      }
    }
  }
}
node {
  name: "generator/encoder_2/batchnorm/scale/Initializer/random_normal"
  op: "Add"
  input: "generator/encoder_2/batchnorm/scale/Initializer/random_normal/mul"
  input: "generator/encoder_2/batchnorm/scale/Initializer/random_normal/mean"
  attr {
    key: "T"
    value {
      type: DT_FLOAT
    }
  }
  attr {
    key: "_class"
    value {
      list {
        s: "loc:@generator/encoder_2/batchnorm/scale"
      }
    }
  }
  attr {
    key: "_output_shapes"
    value {
      list {
        shape {
          dim {
            size: 128
          }
        }
      }
    }
  }
}
node {
  name: "generator/encoder_2/batchnorm/scale"
  op: "VariableV2"
  attr {
    key: "_class"
    value {
      list {
        s: "loc:@generator/encoder_2/batchnorm/scale"
      }
    }
  }
  attr {
    key: "_output_shapes"
    value {
      list {
        shape {
          dim {
            size: 128
          }
        }
      }
    }
  }
  attr {
    key: "container"
    value {
      s: ""
    }
  }
  attr {
    key: "dtype"
    value {
      type: DT_FLOAT
    }
  }
  attr {
    key: "shape"
    value {
      shape {
        dim {
          size: 128
        }
      }
    }
  }
  attr {
    key: "shared_name"
    value {
      s: ""
    }
  }
}
node {
  name: "generator/encoder_2/batchnorm/scale/Assign"
  op: "Assign"
  input: "generator/encoder_2/batchnorm/scale"
  input: "generator/encoder_2/batchnorm/scale/Initializer/random_normal"
  attr {
    key: "T"
    value {
      type: DT_FLOAT
    }
  }
  attr {
    key: "_class"
    value {
      list {
        s: "loc:@generator/encoder_2/batchnorm/scale"
      }
    }
  }
  attr {
    key: "_output_shapes"
    value {
      list {
        shape {
          dim {
            size: 128
          }
        }
      }
    }
  }
  attr {
    key: "use_locking"
    value {
      b: true
    }
  }
  attr {
    key: "validate_shape"
    value {
      b: true
    }
  }
}
node {
  name: "generator/encoder_2/batchnorm/scale/read"
  op: "Identity"
  input: "generator/encoder_2/batchnorm/scale"
  attr {
    key: "T"
    value {
      type: DT_FLOAT
    }
  }
  attr {
    key: "_class"
    value {
      list {
        s: "loc:@generator/encoder_2/batchnorm/scale"
      }
    }
  }
  attr {
    key: "_output_shapes"
    value {
      list {
        shape {
          dim {
            size: 128
          }
        }
      }
    }
  }
}
node {
  name: "generator/encoder_2/batchnorm/moments/mean/reduction_indices"
  op: "Const"
  attr {
    key: "_output_shapes"
    value {
      list {
        shape {
          dim {
            size: 3
          }
        }
      }
    }
  }
  attr {
    key: "dtype"
    value {
      type: DT_INT32
    }
  }
  attr {
    key: "value"
    value {
      tensor {
        dtype: DT_INT32
        tensor_shape {
          dim {
            size: 3
          }
        }
        tensor_content: "\000\000\000\000\001\000\000\000\002\000\000\000"
      }
    }
  }
}
node {
  name: "generator/encoder_2/batchnorm/moments/mean"
  op: "Mean"
  input: "generator/encoder_2/batchnorm/Identity"
  input: "generator/encoder_2/batchnorm/moments/mean/reduction_indices"
  attr {
    key: "T"
    value {
      type: DT_FLOAT
    }
  }
  attr {
    key: "Tidx"
    value {
      type: DT_INT32
    }
  }
  attr {
    key: "_output_shapes"
    value {
      list {
        shape {
          dim {
            size: 1
          }
          dim {
            size: 1
          }
          dim {
            size: 1
          }
          dim {
            size: 128
          }
        }
      }
    }
  }
  attr {
    key: "keep_dims"
    value {
      b: true
    }
  }
}
node {
  name: "generator/encoder_2/batchnorm/moments/StopGradient"
  op: "StopGradient"
  input: "generator/encoder_2/batchnorm/moments/mean"
  attr {
    key: "T"
    value {
      type: DT_FLOAT
    }
  }
  attr {
    key: "_output_shapes"
    value {
      list {
        shape {
          dim {
            size: 1
          }
          dim {
            size: 1
          }
          dim {
            size: 1
          }
          dim {
            size: 128
          }
        }
      }
    }
  }
}
node {
  name: "generator/encoder_2/batchnorm/moments/SquaredDifference"
  op: "SquaredDifference"
  input: "generator/encoder_2/batchnorm/Identity"
  input: "generator/encoder_2/batchnorm/moments/StopGradient"
  attr {
    key: "T"
    value {
      type: DT_FLOAT
    }
  }
  attr {
    key: "_output_shapes"
    value {
      list {
        shape {
          dim {
            size: 1
          }
          dim {
            size: 64
          }
          dim {
            size: 64
          }
          dim {
            size: 128
          }
        }
      }
    }
  }
}
node {
  name: "generator/encoder_2/batchnorm/moments/variance/reduction_indices"
  op: "Const"
  attr {
    key: "_output_shapes"
    value {
      list {
        shape {
          dim {
            size: 3
          }
        }
      }
    }
  }
  attr {
    key: "dtype"
    value {
      type: DT_INT32
    }
  }
  attr {
    key: "value"
    value {
      tensor {
        dtype: DT_INT32
        tensor_shape {
          dim {
            size: 3
          }
        }
        tensor_content: "\000\000\000\000\001\000\000\000\002\000\000\000"
      }
    }
  }
}
node {
  name: "generator/encoder_2/batchnorm/moments/variance"
  op: "Mean"
  input: "generator/encoder_2/batchnorm/moments/SquaredDifference"
  input: "generator/encoder_2/batchnorm/moments/variance/reduction_indices"
  attr {
    key: "T"
    value {
      type: DT_FLOAT
    }
  }
  attr {
    key: "Tidx"
    value {
      type: DT_INT32
    }
  }
  attr {
    key: "_output_shapes"
    value {
      list {
        shape {
          dim {
            size: 1
          }
          dim {
            size: 1
          }
          dim {
            size: 1
          }
          dim {
            size: 128
          }
        }
      }
    }
  }
  attr {
    key: "keep_dims"
    value {
      b: true
    }
  }
}
node {
  name: "generator/encoder_2/batchnorm/moments/Squeeze"
  op: "Squeeze"
  input: "generator/encoder_2/batchnorm/moments/mean"
  attr {
    key: "T"
    value {
      type: DT_FLOAT
    }
  }
  attr {
    key: "_output_shapes"
    value {
      list {
        shape {
          dim {
            size: 128
          }
        }
      }
    }
  }
  attr {
    key: "squeeze_dims"
    value {
      list {
        i: 0
        i: 1
        i: 2
      }
    }
  }
}
node {
  name: "generator/encoder_2/batchnorm/moments/Squeeze_1"
  op: "Squeeze"
  input: "generator/encoder_2/batchnorm/moments/variance"
  attr {
    key: "T"
    value {
      type: DT_FLOAT
    }
  }
  attr {
    key: "_output_shapes"
    value {
      list {
        shape {
          dim {
            size: 128
          }
        }
      }
    }
  }
  attr {
    key: "squeeze_dims"
    value {
      list {
        i: 0
        i: 1
        i: 2
      }
    }
  }
}
node {
  name: "generator/encoder_2/batchnorm/batchnorm/add/y"
  op: "Const"
  attr {
    key: "_output_shapes"
    value {
      list {
        shape {
        }
      }
    }
  }
  attr {
    key: "dtype"
    value {
      type: DT_FLOAT
    }
  }
  attr {
    key: "value"
    value {
      tensor {
        dtype: DT_FLOAT
        tensor_shape {
        }
        float_val: 1e-05
      }
    }
  }
}
node {
  name: "generator/encoder_2/batchnorm/batchnorm/add"
  op: "Add"
  input: "generator/encoder_2/batchnorm/moments/Squeeze_1"
  input: "generator/encoder_2/batchnorm/batchnorm/add/y"
  attr {
    key: "T"
    value {
      type: DT_FLOAT
    }
  }
  attr {
    key: "_output_shapes"
    value {
      list {
        shape {
          dim {
            size: 128
          }
        }
      }
    }
  }
}
node {
  name: "generator/encoder_2/batchnorm/batchnorm/Rsqrt"
  op: "Rsqrt"
  input: "generator/encoder_2/batchnorm/batchnorm/add"
  attr {
    key: "T"
    value {
      type: DT_FLOAT
    }
  }
  attr {
    key: "_output_shapes"
    value {
      list {
        shape {
          dim {
            size: 128
          }
        }
      }
    }
  }
}
node {
  name: "generator/encoder_2/batchnorm/batchnorm/mul"
  op: "Mul"
  input: "generator/encoder_2/batchnorm/batchnorm/Rsqrt"
  input: "generator/encoder_2/batchnorm/scale/read"
  attr {
    key: "T"
    value {
      type: DT_FLOAT
    }
  }
  attr {
    key: "_output_shapes"
    value {
      list {
        shape {
          dim {
            size: 128
          }
        }
      }
    }
  }
}
node {
  name: "generator/encoder_2/batchnorm/batchnorm/mul_1"
  op: "Mul"
  input: "generator/encoder_2/batchnorm/Identity"
  input: "generator/encoder_2/batchnorm/batchnorm/mul"
  attr {
    key: "T"
    value {
      type: DT_FLOAT
    }
  }
  attr {
    key: "_output_shapes"
    value {
      list {
        shape {
          dim {
            size: 1
          }
          dim {
            size: 64
          }
          dim {
            size: 64
          }
          dim {
            size: 128
          }
        }
      }
    }
  }
}
node {
  name: "generator/encoder_2/batchnorm/batchnorm/mul_2"
  op: "Mul"
  input: "generator/encoder_2/batchnorm/moments/Squeeze"
  input: "generator/encoder_2/batchnorm/batchnorm/mul"
  attr {
    key: "T"
    value {
      type: DT_FLOAT
    }
  }
  attr {
    key: "_output_shapes"
    value {
      list {
        shape {
          dim {
            size: 128
          }
        }
      }
    }
  }
}
node {
  name: "generator/encoder_2/batchnorm/batchnorm/sub"
  op: "Sub"
  input: "generator/encoder_2/batchnorm/offset/read"
  input: "generator/encoder_2/batchnorm/batchnorm/mul_2"
  attr {
    key: "T"
    value {
      type: DT_FLOAT
    }
  }
  attr {
    key: "_output_shapes"
    value {
      list {
        shape {
          dim {
            size: 128
          }
        }
      }
    }
  }
}
node {
  name: "generator/encoder_2/batchnorm/batchnorm/add_1"
  op: "Add"
  input: "generator/encoder_2/batchnorm/batchnorm/mul_1"
  input: "generator/encoder_2/batchnorm/batchnorm/sub"
  attr {
    key: "T"
    value {
      type: DT_FLOAT
    }
  }
  attr {
    key: "_output_shapes"
    value {
      list {
        shape {
          dim {
            size: 1
          }
          dim {
            size: 64
          }
          dim {
            size: 64
          }
          dim {
            size: 128
          }
        }
      }
    }
  }
}
node {
  name: "generator/encoder_3/lrelu/Identity"
  op: "Identity"
  input: "generator/encoder_2/batchnorm/batchnorm/add_1"
  attr {
    key: "T"
    value {
      type: DT_FLOAT
    }
  }
  attr {
    key: "_output_shapes"
    value {
      list {
        shape {
          dim {
            size: 1
          }
          dim {
            size: 64
          }
          dim {
            size: 64
          }
          dim {
            size: 128
          }
        }
      }
    }
  }
}
node {
  name: "generator/encoder_3/lrelu/mul/x"
  op: "Const"
  attr {
    key: "_output_shapes"
    value {
      list {
        shape {
        }
      }
    }
  }
  attr {
    key: "dtype"
    value {
      type: DT_FLOAT
    }
  }
  attr {
    key: "value"
    value {
      tensor {
        dtype: DT_FLOAT
        tensor_shape {
        }
        float_val: 0.6
      }
    }
  }
}
node {
  name: "generator/encoder_3/lrelu/mul"
  op: "Mul"
  input: "generator/encoder_3/lrelu/mul/x"
  input: "generator/encoder_3/lrelu/Identity"
  attr {
    key: "T"
    value {
      type: DT_FLOAT
    }
  }
  attr {
    key: "_output_shapes"
    value {
      list {
        shape {
          dim {
            size: 1
          }
          dim {
            size: 64
          }
          dim {
            size: 64
          }
          dim {
            size: 128
          }
        }
      }
    }
  }
}
node {
  name: "generator/encoder_3/lrelu/Abs"
  op: "Abs"
  input: "generator/encoder_3/lrelu/Identity"
  attr {
    key: "T"
    value {
      type: DT_FLOAT
    }
  }
  attr {
    key: "_output_shapes"
    value {
      list {
        shape {
          dim {
            size: 1
          }
          dim {
            size: 64
          }
          dim {
            size: 64
          }
          dim {
            size: 128
          }
        }
      }
    }
  }
}
node {
  name: "generator/encoder_3/lrelu/mul_1/x"
  op: "Const"
  attr {
    key: "_output_shapes"
    value {
      list {
        shape {
        }
      }
    }
  }
  attr {
    key: "dtype"
    value {
      type: DT_FLOAT
    }
  }
  attr {
    key: "value"
    value {
      tensor {
        dtype: DT_FLOAT
        tensor_shape {
        }
        float_val: 0.4
      }
    }
  }
}
node {
  name: "generator/encoder_3/lrelu/mul_1"
  op: "Mul"
  input: "generator/encoder_3/lrelu/mul_1/x"
  input: "generator/encoder_3/lrelu/Abs"
  attr {
    key: "T"
    value {
      type: DT_FLOAT
    }
  }
  attr {
    key: "_output_shapes"
    value {
      list {
        shape {
          dim {
            size: 1
          }
          dim {
            size: 64
          }
          dim {
            size: 64
          }
          dim {
            size: 128
          }
        }
      }
    }
  }
}
node {
  name: "generator/encoder_3/lrelu/add"
  op: "Add"
  input: "generator/encoder_3/lrelu/mul"
  input: "generator/encoder_3/lrelu/mul_1"
  attr {
    key: "T"
    value {
      type: DT_FLOAT
    }
  }
  attr {
    key: "_output_shapes"
    value {
      list {
        shape {
          dim {
            size: 1
          }
          dim {
            size: 64
          }
          dim {
            size: 64
          }
          dim {
            size: 128
          }
        }
      }
    }
  }
}
node {
  name: "generator/encoder_3/conv/filter/Initializer/random_normal/shape"
  op: "Const"
  attr {
    key: "_class"
    value {
      list {
        s: "loc:@generator/encoder_3/conv/filter"
      }
    }
  }
  attr {
    key: "_output_shapes"
    value {
      list {
        shape {
          dim {
            size: 4
          }
        }
      }
    }
  }
  attr {
    key: "dtype"
    value {
      type: DT_INT32
    }
  }
  attr {
    key: "value"
    value {
      tensor {
        dtype: DT_INT32
        tensor_shape {
          dim {
            size: 4
          }
        }
        tensor_content: "\004\000\000\000\004\000\000\000\200\000\000\000\000\001\000\000"
      }
    }
  }
}
node {
  name: "generator/encoder_3/conv/filter/Initializer/random_normal/mean"
  op: "Const"
  attr {
    key: "_class"
    value {
      list {
        s: "loc:@generator/encoder_3/conv/filter"
      }
    }
  }
  attr {
    key: "_output_shapes"
    value {
      list {
        shape {
        }
      }
    }
  }
  attr {
    key: "dtype"
    value {
      type: DT_FLOAT
    }
  }
  attr {
    key: "value"
    value {
      tensor {
        dtype: DT_FLOAT
        tensor_shape {
        }
        float_val: 0.0
      }
    }
  }
}
node {
  name: "generator/encoder_3/conv/filter/Initializer/random_normal/stddev"
  op: "Const"
  attr {
    key: "_class"
    value {
      list {
        s: "loc:@generator/encoder_3/conv/filter"
      }
    }
  }
  attr {
    key: "_output_shapes"
    value {
      list {
        shape {
        }
      }
    }
  }
  attr {
    key: "dtype"
    value {
      type: DT_FLOAT
    }
  }
  attr {
    key: "value"
    value {
      tensor {
        dtype: DT_FLOAT
        tensor_shape {
        }
        float_val: 0.02
      }
    }
  }
}
node {
  name: "generator/encoder_3/conv/filter/Initializer/random_normal/RandomStandardNormal"
  op: "RandomStandardNormal"
  input: "generator/encoder_3/conv/filter/Initializer/random_normal/shape"
  attr {
    key: "T"
    value {
      type: DT_INT32
    }
  }
  attr {
    key: "_class"
    value {
      list {
        s: "loc:@generator/encoder_3/conv/filter"
      }
    }
  }
  attr {
    key: "_output_shapes"
    value {
      list {
        shape {
          dim {
            size: 4
          }
          dim {
            size: 4
          }
          dim {
            size: 128
          }
          dim {
            size: 256
          }
        }
      }
    }
  }
  attr {
    key: "dtype"
    value {
      type: DT_FLOAT
    }
  }
  attr {
    key: "seed"
    value {
      i: 2071349299
    }
  }
  attr {
    key: "seed2"
    value {
      i: 184
    }
  }
}
node {
  name: "generator/encoder_3/conv/filter/Initializer/random_normal/mul"
  op: "Mul"
  input: "generator/encoder_3/conv/filter/Initializer/random_normal/RandomStandardNormal"
  input: "generator/encoder_3/conv/filter/Initializer/random_normal/stddev"
  attr {
    key: "T"
    value {
      type: DT_FLOAT
    }
  }
  attr {
    key: "_class"
    value {
      list {
        s: "loc:@generator/encoder_3/conv/filter"
      }
    }
  }
  attr {
    key: "_output_shapes"
    value {
      list {
        shape {
          dim {
            size: 4
          }
          dim {
            size: 4
          }
          dim {
            size: 128
          }
          dim {
            size: 256
          }
        }
      }
    }
  }
}
node {
  name: "generator/encoder_3/conv/filter/Initializer/random_normal"
  op: "Add"
  input: "generator/encoder_3/conv/filter/Initializer/random_normal/mul"
  input: "generator/encoder_3/conv/filter/Initializer/random_normal/mean"
  attr {
    key: "T"
    value {
      type: DT_FLOAT
    }
  }
  attr {
    key: "_class"
    value {
      list {
        s: "loc:@generator/encoder_3/conv/filter"
      }
    }
  }
  attr {
    key: "_output_shapes"
    value {
      list {
        shape {
          dim {
            size: 4
          }
          dim {
            size: 4
          }
          dim {
            size: 128
          }
          dim {
            size: 256
          }
        }
      }
    }
  }
}
node {
  name: "generator/encoder_3/conv/filter"
  op: "VariableV2"
  attr {
    key: "_class"
    value {
      list {
        s: "loc:@generator/encoder_3/conv/filter"
      }
    }
  }
  attr {
    key: "_output_shapes"
    value {
      list {
        shape {
          dim {
            size: 4
          }
          dim {
            size: 4
          }
          dim {
            size: 128
          }
          dim {
            size: 256
          }
        }
      }
    }
  }
  attr {
    key: "container"
    value {
      s: ""
    }
  }
  attr {
    key: "dtype"
    value {
      type: DT_FLOAT
    }
  }
  attr {
    key: "shape"
    value {
      shape {
        dim {
          size: 4
        }
        dim {
          size: 4
        }
        dim {
          size: 128
        }
        dim {
          size: 256
        }
      }
    }
  }
  attr {
    key: "shared_name"
    value {
      s: ""
    }
  }
}
node {
  name: "generator/encoder_3/conv/filter/Assign"
  op: "Assign"
  input: "generator/encoder_3/conv/filter"
  input: "generator/encoder_3/conv/filter/Initializer/random_normal"
  attr {
    key: "T"
    value {
      type: DT_FLOAT
    }
  }
  attr {
    key: "_class"
    value {
      list {
        s: "loc:@generator/encoder_3/conv/filter"
      }
    }
  }
  attr {
    key: "_output_shapes"
    value {
      list {
        shape {
          dim {
            size: 4
          }
          dim {
            size: 4
          }
          dim {
            size: 128
          }
          dim {
            size: 256
          }
        }
      }
    }
  }
  attr {
    key: "use_locking"
    value {
      b: true
    }
  }
  attr {
    key: "validate_shape"
    value {
      b: true
    }
  }
}
node {
  name: "generator/encoder_3/conv/filter/read"
  op: "Identity"
  input: "generator/encoder_3/conv/filter"
  attr {
    key: "T"
    value {
      type: DT_FLOAT
    }
  }
  attr {
    key: "_class"
    value {
      list {
        s: "loc:@generator/encoder_3/conv/filter"
      }
    }
  }
  attr {
    key: "_output_shapes"
    value {
      list {
        shape {
          dim {
            size: 4
          }
          dim {
            size: 4
          }
          dim {
            size: 128
          }
          dim {
            size: 256
          }
        }
      }
    }
  }
}
node {
  name: "generator/encoder_3/conv/Pad/paddings"
  op: "Const"
  attr {
    key: "_output_shapes"
    value {
      list {
        shape {
          dim {
            size: 4
          }
          dim {
            size: 2
          }
        }
      }
    }
  }
  attr {
    key: "dtype"
    value {
      type: DT_INT32
    }
  }
  attr {
    key: "value"
    value {
      tensor {
        dtype: DT_INT32
        tensor_shape {
          dim {
            size: 4
          }
          dim {
            size: 2
          }
        }
        tensor_content: "…"
      }
    }
  }
}
node {
  name: "generator/encoder_3/conv/Pad"
  op: "Pad"
  input: "generator/encoder_3/lrelu/add"
  input: "generator/encoder_3/conv/Pad/paddings"
  attr {
    key: "T"
    value {
      type: DT_FLOAT
    }
  }
  attr {
    key: "Tpaddings"
    value {
      type: DT_INT32
    }
  }
  attr {
    key: "_output_shapes"
    value {
      list {
        shape {
          dim {
            size: 1
          }
          dim {
            size: 66
          }
          dim {
            size: 66
          }
          dim {
            size: 128
          }
        }
      }
    }
  }
}
node {
  name: "generator/encoder_3/conv/Conv2D"
  op: "Conv2D"
  input: "generator/encoder_3/conv/Pad"
  input: "generator/encoder_3/conv/filter/read"
  attr {
    key: "T"
    value {
      type: DT_FLOAT
    }
  }
  attr {
    key: "_output_shapes"
    value {
      list {
        shape {
          dim {
            size: 1
          }
          dim {
            size: 32
          }
          dim {
            size: 32
          }
          dim {
            size: 256
          }
        }
      }
    }
  }
  attr {
    key: "data_format"
    value {
      s: "NHWC"
    }
  }
  attr {
    key: "dilations"
    value {
      list {
        i: 1
        i: 1
        i: 1
        i: 1
      }
    }
  }
  attr {
    key: "padding"
    value {
      s: "VALID"
    }
  }
  attr {
    key: "strides"
    value {
      list {
        i: 1
        i: 2
        i: 2
        i: 1
      }
    }
  }
  attr {
    key: "use_cudnn_on_gpu"
    value {
      b: true
    }
  }
}
node {
  name: "generator/encoder_3/batchnorm/Identity"
  op: "Identity"
  input: "generator/encoder_3/conv/Conv2D"
  attr {
    key: "T"
    value {
      type: DT_FLOAT
    }
  }
  attr {
    key: "_output_shapes"
    value {
      list {
        shape {
          dim {
            size: 1
          }
          dim {
            size: 32
          }
          dim {
            size: 32
          }
          dim {
            size: 256
          }
        }
      }
    }
  }
}
node {
  name: "generator/encoder_3/batchnorm/offset/Initializer/zeros"
  op: "Const"
  attr {
    key: "_class"
    value {
      list {
        s: "loc:@generator/encoder_3/batchnorm/offset"
      }
    }
  }
  attr {
    key: "_output_shapes"
    value {
      list {
        shape {
          dim {
            size: 256
          }
        }
      }
    }
  }
  attr {
    key: "dtype"
    value {
      type: DT_FLOAT
    }
  }
  attr {
    key: "value"
    value {
      tensor {
        dtype: DT_FLOAT
        tensor_shape {
          dim {
            size: 256
          }
        }
        float_val: 0.0
      }
    }
  }
}
node {
  name: "generator/encoder_3/batchnorm/offset"
  op: "VariableV2"
  attr {
    key: "_class"
    value {
      list {
        s: "loc:@generator/encoder_3/batchnorm/offset"
      }
    }
  }
  attr {
    key: "_output_shapes"
    value {
      list {
        shape {
          dim {
            size: 256
          }
        }
      }
    }
  }
  attr {
    key: "container"
    value {
      s: ""
    }
  }
  attr {
    key: "dtype"
    value {
      type: DT_FLOAT
    }
  }
  attr {
    key: "shape"
    value {
      shape {
        dim {
          size: 256
        }
      }
    }
  }
  attr {
    key: "shared_name"
    value {
      s: ""
    }
  }
}
node {
  name: "generator/encoder_3/batchnorm/offset/Assign"
  op: "Assign"
  input: "generator/encoder_3/batchnorm/offset"
  input: "generator/encoder_3/batchnorm/offset/Initializer/zeros"
  attr {
    key: "T"
    value {
      type: DT_FLOAT
    }
  }
  attr {
    key: "_class"
    value {
      list {
        s: "loc:@generator/encoder_3/batchnorm/offset"
      }
    }
  }
  attr {
    key: "_output_shapes"
    value {
      list {
        shape {
          dim {
            size: 256
          }
        }
      }
    }
  }
  attr {
    key: "use_locking"
    value {
      b: true
    }
  }
  attr {
    key: "validate_shape"
    value {
      b: true
    }
  }
}
node {
  name: "generator/encoder_3/batchnorm/offset/read"
  op: "Identity"
  input: "generator/encoder_3/batchnorm/offset"
  attr {
    key: "T"
    value {
      type: DT_FLOAT
    }
  }
  attr {
    key: "_class"
    value {
      list {
        s: "loc:@generator/encoder_3/batchnorm/offset"
      }
    }
  }
  attr {
    key: "_output_shapes"
    value {
      list {
        shape {
          dim {
            size: 256
          }
        }
      }
    }
  }
}
node {
  name: "generator/encoder_3/batchnorm/scale/Initializer/random_normal/shape"
  op: "Const"
  attr {
    key: "_class"
    value {
      list {
        s: "loc:@generator/encoder_3/batchnorm/scale"
      }
    }
  }
  attr {
    key: "_output_shapes"
    value {
      list {
        shape {
          dim {
            size: 1
          }
        }
      }
    }
  }
  attr {
    key: "dtype"
    value {
      type: DT_INT32
    }
  }
  attr {
    key: "value"
    value {
      tensor {
        dtype: DT_INT32
        tensor_shape {
          dim {
            size: 1
          }
        }
        int_val: 256
      }
    }
  }
}
node {
  name: "generator/encoder_3/batchnorm/scale/Initializer/random_normal/mean"
  op: "Const"
  attr {
    key: "_class"
    value {
      list {
        s: "loc:@generator/encoder_3/batchnorm/scale"
      }
    }
  }
  attr {
    key: "_output_shapes"
    value {
      list {
        shape {
        }
      }
    }
  }
  attr {
    key: "dtype"
    value {
      type: DT_FLOAT
    }
  }
  attr {
    key: "value"
    value {
      tensor {
        dtype: DT_FLOAT
        tensor_shape {
        }
        float_val: 1.0
      }
    }
  }
}
node {
  name: "generator/encoder_3/batchnorm/scale/Initializer/random_normal/stddev"
  op: "Const"
  attr {
    key: "_class"
    value {
      list {
        s: "loc:@generator/encoder_3/batchnorm/scale"
      }
    }
  }
  attr {
    key: "_output_shapes"
    value {
      list {
        shape {
        }
      }
    }
  }
  attr {
    key: "dtype"
    value {
      type: DT_FLOAT
    }
  }
  attr {
    key: "value"
    value {
      tensor {
        dtype: DT_FLOAT
        tensor_shape {
        }
        float_val: 0.02
      }
    }
  }
}
node {
  name: "generator/encoder_3/batchnorm/scale/Initializer/random_normal/RandomStandardNormal"
  op: "RandomStandardNormal"
  input: "generator/encoder_3/batchnorm/scale/Initializer/random_normal/shape"
  attr {
    key: "T"
    value {
      type: DT_INT32
    }
  }
  attr {
    key: "_class"
    value {
      list {
        s: "loc:@generator/encoder_3/batchnorm/scale"
      }
    }
  }
  attr {
    key: "_output_shapes"
    value {
      list {
        shape {
          dim {
            size: 256
          }
        }
      }
    }
  }
  attr {
    key: "dtype"
    value {
      type: DT_FLOAT
    }
  }
  attr {
    key: "seed"
    value {
      i: 2071349299
    }
  }
  attr {
    key: "seed2"
    value {
      i: 201
    }
  }
}
node {
  name: "generator/encoder_3/batchnorm/scale/Initializer/random_normal/mul"
  op: "Mul"
  input: "generator/encoder_3/batchnorm/scale/Initializer/random_normal/RandomStandardNormal"
  input: "generator/encoder_3/batchnorm/scale/Initializer/random_normal/stddev"
  attr {
    key: "T"
    value {
      type: DT_FLOAT
    }
  }
  attr {
    key: "_class"
    value {
      list {
        s: "loc:@generator/encoder_3/batchnorm/scale"
      }
    }
  }
  attr {
    key: "_output_shapes"
    value {
      list {
        shape {
          dim {
            size: 256
          }
        }
      }
    }
  }
}
node {
  name: "generator/encoder_3/batchnorm/scale/Initializer/random_normal"
  op: "Add"
  input: "generator/encoder_3/batchnorm/scale/Initializer/random_normal/mul"
  input: "generator/encoder_3/batchnorm/scale/Initializer/random_normal/mean"
  attr {
    key: "T"
    value {
      type: DT_FLOAT
    }
  }
  attr {
    key: "_class"
    value {
      list {
        s: "loc:@generator/encoder_3/batchnorm/scale"
      }
    }
  }
  attr {
    key: "_output_shapes"
    value {
      list {
        shape {
          dim {
            size: 256
          }
        }
      }
    }
  }
}
node {
  name: "generator/encoder_3/batchnorm/scale"
  op: "VariableV2"
  attr {
    key: "_class"
    value {
      list {
        s: "loc:@generator/encoder_3/batchnorm/scale"
      }
    }
  }
  attr {
    key: "_output_shapes"
    value {
      list {
        shape {
          dim {
            size: 256
          }
        }
      }
    }
  }
  attr {
    key: "container"
    value {
      s: ""
    }
  }
  attr {
    key: "dtype"
    value {
      type: DT_FLOAT
    }
  }
  attr {
    key: "shape"
    value {
      shape {
        dim {
          size: 256
        }
      }
    }
  }
  attr {
    key: "shared_name"
    value {
      s: ""
    }
  }
}
node {
  name: "generator/encoder_3/batchnorm/scale/Assign"
  op: "Assign"
  input: "generator/encoder_3/batchnorm/scale"
  input: "generator/encoder_3/batchnorm/scale/Initializer/random_normal"
  attr {
    key: "T"
    value {
      type: DT_FLOAT
    }
  }
  attr {
    key: "_class"
    value {
      list {
        s: "loc:@generator/encoder_3/batchnorm/scale"
      }
    }
  }
  attr {
    key: "_output_shapes"
    value {
      list {
        shape {
          dim {
            size: 256
          }
        }
      }
    }
  }
  attr {
    key: "use_locking"
    value {
      b: true
    }
  }
  attr {
    key: "validate_shape"
    value {
      b: true
    }
  }
}
node {
  name: "generator/encoder_3/batchnorm/scale/read"
  op: "Identity"
  input: "generator/encoder_3/batchnorm/scale"
  attr {
    key: "T"
    value {
      type: DT_FLOAT
    }
  }
  attr {
    key: "_class"
    value {
      list {
        s: "loc:@generator/encoder_3/batchnorm/scale"
      }
    }
  }
  attr {
    key: "_output_shapes"
    value {
      list {
        shape {
          dim {
            size: 256
          }
        }
      }
    }
  }
}
node {
  name: "generator/encoder_3/batchnorm/moments/mean/reduction_indices"
  op: "Const"
  attr {
    key: "_output_shapes"
    value {
      list {
        shape {
          dim {
            size: 3
          }
        }
      }
    }
  }
  attr {
    key: "dtype"
    value {
      type: DT_INT32
    }
  }
  attr {
    key: "value"
    value {
      tensor {
        dtype: DT_INT32
        tensor_shape {
          dim {
            size: 3
          }
        }
        tensor_content: "\000\000\000\000\001\000\000\000\002\000\000\000"
      }
    }
  }
}
node {
  name: "generator/encoder_3/batchnorm/moments/mean"
  op: "Mean"
  input: "generator/encoder_3/batchnorm/Identity"
  input: "generator/encoder_3/batchnorm/moments/mean/reduction_indices"
  attr {
    key: "T"
    value {
      type: DT_FLOAT
    }
  }
  attr {
    key: "Tidx"
    value {
      type: DT_INT32
    }
  }
  attr {
    key: "_output_shapes"
    value {
      list {
        shape {
          dim {
            size: 1
          }
          dim {
            size: 1
          }
          dim {
            size: 1
          }
          dim {
            size: 256
          }
        }
      }
    }
  }
  attr {
    key: "keep_dims"
    value {
      b: true
    }
  }
}
node {
  name: "generator/encoder_3/batchnorm/moments/StopGradient"
  op: "StopGradient"
  input: "generator/encoder_3/batchnorm/moments/mean"
  attr {
    key: "T"
    value {
      type: DT_FLOAT
    }
  }
  attr {
    key: "_output_shapes"
    value {
      list {
        shape {
          dim {
            size: 1
          }
          dim {
            size: 1
          }
          dim {
            size: 1
          }
          dim {
            size: 256
          }
        }
      }
    }
  }
}
node {
  name: "generator/encoder_3/batchnorm/moments/SquaredDifference"
  op: "SquaredDifference"
  input: "generator/encoder_3/batchnorm/Identity"
  input: "generator/encoder_3/batchnorm/moments/StopGradient"
  attr {
    key: "T"
    value {
      type: DT_FLOAT
    }
  }
  attr {
    key: "_output_shapes"
    value {
      list {
        shape {
          dim {
            size: 1
          }
          dim {
            size: 32
          }
          dim {
            size: 32
          }
          dim {
            size: 256
          }
        }
      }
    }
  }
}
node {
  name: "generator/encoder_3/batchnorm/moments/variance/reduction_indices"
  op: "Const"
  attr {
    key: "_output_shapes"
    value {
      list {
        shape {
          dim {
            size: 3
          }
        }
      }
    }
  }
  attr {
    key: "dtype"
    value {
      type: DT_INT32
    }
  }
  attr {
    key: "value"
    value {
      tensor {
        dtype: DT_INT32
        tensor_shape {
          dim {
            size: 3
          }
        }
        tensor_content: "\000\000\000\000\001\000\000\000\002\000\000\000"
      }
    }
  }
}
node {
  name: "generator/encoder_3/batchnorm/moments/variance"
  op: "Mean"
  input: "generator/encoder_3/batchnorm/moments/SquaredDifference"
  input: "generator/encoder_3/batchnorm/moments/variance/reduction_indices"
  attr {
    key: "T"
    value {
      type: DT_FLOAT
    }
  }
  attr {
    key: "Tidx"
    value {
      type: DT_INT32
    }
  }
  attr {
    key: "_output_shapes"
    value {
      list {
        shape {
          dim {
            size: 1
          }
          dim {
            size: 1
          }
          dim {
            size: 1
          }
          dim {
            size: 256
          }
        }
      }
    }
  }
  attr {
    key: "keep_dims"
    value {
      b: true
    }
  }
}
node {
  name: "generator/encoder_3/batchnorm/moments/Squeeze"
  op: "Squeeze"
  input: "generator/encoder_3/batchnorm/moments/mean"
  attr {
    key: "T"
    value {
      type: DT_FLOAT
    }
  }
  attr {
    key: "_output_shapes"
    value {
      list {
        shape {
          dim {
            size: 256
          }
        }
      }
    }
  }
  attr {
    key: "squeeze_dims"
    value {
      list {
        i: 0
        i: 1
        i: 2
      }
    }
  }
}
node {
  name: "generator/encoder_3/batchnorm/moments/Squeeze_1"
  op: "Squeeze"
  input: "generator/encoder_3/batchnorm/moments/variance"
  attr {
    key: "T"
    value {
      type: DT_FLOAT
    }
  }
  attr {
    key: "_output_shapes"
    value {
      list {
        shape {
          dim {
            size: 256
          }
        }
      }
    }
  }
  attr {
    key: "squeeze_dims"
    value {
      list {
        i: 0
        i: 1
        i: 2
      }
    }
  }
}
node {
  name: "generator/encoder_3/batchnorm/batchnorm/add/y"
  op: "Const"
  attr {
    key: "_output_shapes"
    value {
      list {
        shape {
        }
      }
    }
  }
  attr {
    key: "dtype"
    value {
      type: DT_FLOAT
    }
  }
  attr {
    key: "value"
    value {
      tensor {
        dtype: DT_FLOAT
        tensor_shape {
        }
        float_val: 1e-05
      }
    }
  }
}
node {
  name: "generator/encoder_3/batchnorm/batchnorm/add"
  op: "Add"
  input: "generator/encoder_3/batchnorm/moments/Squeeze_1"
  input: "generator/encoder_3/batchnorm/batchnorm/add/y"
  attr {
    key: "T"
    value {
      type: DT_FLOAT
    }
  }
  attr {
    key: "_output_shapes"
    value {
      list {
        shape {
          dim {
            size: 256
          }
        }
      }
    }
  }
}
node {
  name: "generator/encoder_3/batchnorm/batchnorm/Rsqrt"
  op: "Rsqrt"
  input: "generator/encoder_3/batchnorm/batchnorm/add"
  attr {
    key: "T"
    value {
      type: DT_FLOAT
    }
  }
  attr {
    key: "_output_shapes"
    value {
      list {
        shape {
          dim {
            size: 256
          }
        }
      }
    }
  }
}
node {
  name: "generator/encoder_3/batchnorm/batchnorm/mul"
  op: "Mul"
  input: "generator/encoder_3/batchnorm/batchnorm/Rsqrt"
  input: "generator/encoder_3/batchnorm/scale/read"
  attr {
    key: "T"
    value {
      type: DT_FLOAT
    }
  }
  attr {
    key: "_output_shapes"
    value {
      list {
        shape {
          dim {
            size: 256
          }
        }
      }
    }
  }
}
node {
  name: "generator/encoder_3/batchnorm/batchnorm/mul_1"
  op: "Mul"
  input: "generator/encoder_3/batchnorm/Identity"
  input: "generator/encoder_3/batchnorm/batchnorm/mul"
  attr {
    key: "T"
    value {
      type: DT_FLOAT
    }
  }
  attr {
    key: "_output_shapes"
    value {
      list {
        shape {
          dim {
            size: 1
          }
          dim {
            size: 32
          }
          dim {
            size: 32
          }
          dim {
            size: 256
          }
        }
      }
    }
  }
}
node {
  name: "generator/encoder_3/batchnorm/batchnorm/mul_2"
  op: "Mul"
  input: "generator/encoder_3/batchnorm/moments/Squeeze"
  input: "generator/encoder_3/batchnorm/batchnorm/mul"
  attr {
    key: "T"
    value {
      type: DT_FLOAT
    }
  }
  attr {
    key: "_output_shapes"
    value {
      list {
        shape {
          dim {
            size: 256
          }
        }
      }
    }
  }
}
node {
  name: "generator/encoder_3/batchnorm/batchnorm/sub"
  op: "Sub"
  input: "generator/encoder_3/batchnorm/offset/read"
  input: "generator/encoder_3/batchnorm/batchnorm/mul_2"
  attr {
    key: "T"
    value {
      type: DT_FLOAT
    }
  }
  attr {
    key: "_output_shapes"
    value {
      list {
        shape {
          dim {
            size: 256
          }
        }
      }
    }
  }
}
node {
  name: "generator/encoder_3/batchnorm/batchnorm/add_1"
  op: "Add"
  input: "generator/encoder_3/batchnorm/batchnorm/mul_1"
  input: "generator/encoder_3/batchnorm/batchnorm/sub"
  attr {
    key: "T"
    value {
      type: DT_FLOAT
    }
  }
  attr {
    key: "_output_shapes"
    value {
      list {
        shape {
          dim {
            size: 1
          }
          dim {
            size: 32
          }
          dim {
            size: 32
          }
          dim {
            size: 256
          }
        }
      }
    }
  }
}
node {
  name: "generator/encoder_4/lrelu/Identity"
  op: "Identity"
  input: "generator/encoder_3/batchnorm/batchnorm/add_1"
  attr {
    key: "T"
    value {
      type: DT_FLOAT
    }
  }
  attr {
    key: "_output_shapes"
    value {
      list {
        shape {
          dim {
            size: 1
          }
          dim {
            size: 32
          }
          dim {
            size: 32
          }
          dim {
            size: 256
          }
        }
      }
    }
  }
}
node {
  name: "generator/encoder_4/lrelu/mul/x"
  op: "Const"
  attr {
    key: "_output_shapes"
    value {
      list {
        shape {
        }
      }
    }
  }
  attr {
    key: "dtype"
    value {
      type: DT_FLOAT
    }
  }
  attr {
    key: "value"
    value {
      tensor {
        dtype: DT_FLOAT
        tensor_shape {
        }
        float_val: 0.6
      }
    }
  }
}
node {
  name: "generator/encoder_4/lrelu/mul"
  op: "Mul"
  input: "generator/encoder_4/lrelu/mul/x"
  input: "generator/encoder_4/lrelu/Identity"
  attr {
    key: "T"
    value {
      type: DT_FLOAT
    }
  }
  attr {
    key: "_output_shapes"
    value {
      list {
        shape {
          dim {
            size: 1
          }
          dim {
            size: 32
          }
          dim {
            size: 32
          }
          dim {
            size: 256
          }
        }
      }
    }
  }
}
node {
  name: "generator/encoder_4/lrelu/Abs"
  op: "Abs"
  input: "generator/encoder_4/lrelu/Identity"
  attr {
    key: "T"
    value {
      type: DT_FLOAT
    }
  }
  attr {
    key: "_output_shapes"
    value {
      list {
        shape {
          dim {
            size: 1
          }
          dim {
            size: 32
          }
          dim {
            size: 32
          }
          dim {
            size: 256
          }
        }
      }
    }
  }
}
node {
  name: "generator/encoder_4/lrelu/mul_1/x"
  op: "Const"
  attr {
    key: "_output_shapes"
    value {
      list {
        shape {
        }
      }
    }
  }
  attr {
    key: "dtype"
    value {
      type: DT_FLOAT
    }
  }
  attr {
    key: "value"
    value {
      tensor {
        dtype: DT_FLOAT
        tensor_shape {
        }
        float_val: 0.4
      }
    }
  }
}
node {
  name: "generator/encoder_4/lrelu/mul_1"
  op: "Mul"
  input: "generator/encoder_4/lrelu/mul_1/x"
  input: "generator/encoder_4/lrelu/Abs"
  attr {
    key: "T"
    value {
      type: DT_FLOAT
    }
  }
  attr {
    key: "_output_shapes"
    value {
      list {
        shape {
          dim {
            size: 1
          }
          dim {
            size: 32
          }
          dim {
            size: 32
          }
          dim {
            size: 256
          }
        }
      }
    }
  }
}
node {
  name: "generator/encoder_4/lrelu/add"
  op: "Add"
  input: "generator/encoder_4/lrelu/mul"
  input: "generator/encoder_4/lrelu/mul_1"
  attr {
    key: "T"
    value {
      type: DT_FLOAT
    }
  }
  attr {
    key: "_output_shapes"
    value {
      list {
        shape {
          dim {
            size: 1
          }
          dim {
            size: 32
          }
          dim {
            size: 32
          }
          dim {
            size: 256
          }
        }
      }
    }
  }
}
node {
  name: "generator/encoder_4/conv/filter/Initializer/random_normal/shape"
  op: "Const"
  attr {
    key: "_class"
    value {
      list {
        s: "loc:@generator/encoder_4/conv/filter"
      }
    }
  }
  attr {
    key: "_output_shapes"
    value {
      list {
        shape {
          dim {
            size: 4
          }
        }
      }
    }
  }
  attr {
    key: "dtype"
    value {
      type: DT_INT32
    }
  }
  attr {
    key: "value"
    value {
      tensor {
        dtype: DT_INT32
        tensor_shape {
          dim {
            size: 4
          }
        }
        tensor_content: "\004\000\000\000\004\000\000\000\000\001\000\000\000\002\000\000"
      }
    }
  }
}
node {
  name: "generator/encoder_4/conv/filter/Initializer/random_normal/mean"
  op: "Const"
  attr {
    key: "_class"
    value {
      list {
        s: "loc:@generator/encoder_4/conv/filter"
      }
    }
  }
  attr {
    key: "_output_shapes"
    value {
      list {
        shape {
        }
      }
    }
  }
  attr {
    key: "dtype"
    value {
      type: DT_FLOAT
    }
  }
  attr {
    key: "value"
    value {
      tensor {
        dtype: DT_FLOAT
        tensor_shape {
        }
        float_val: 0.0
      }
    }
  }
}
node {
  name: "generator/encoder_4/conv/filter/Initializer/random_normal/stddev"
  op: "Const"
  attr {
    key: "_class"
    value {
      list {
        s: "loc:@generator/encoder_4/conv/filter"
      }
    }
  }
  attr {
    key: "_output_shapes"
    value {
      list {
        shape {
        }
      }
    }
  }
  attr {
    key: "dtype"
    value {
      type: DT_FLOAT
    }
  }
  attr {
    key: "value"
    value {
      tensor {
        dtype: DT_FLOAT
        tensor_shape {
        }
        float_val: 0.02
      }
    }
  }
}
node {
  name: "generator/encoder_4/conv/filter/Initializer/random_normal/RandomStandardNormal"
  op: "RandomStandardNormal"
  input: "generator/encoder_4/conv/filter/Initializer/random_normal/shape"
  attr {
    key: "T"
    value {
      type: DT_INT32
    }
  }
  attr {
    key: "_class"
    value {
      list {
        s: "loc:@generator/encoder_4/conv/filter"
      }
    }
  }
  attr {
    key: "_output_shapes"
    value {
      list {
        shape {
          dim {
            size: 4
          }
          dim {
            size: 4
          }
          dim {
            size: 256
          }
          dim {
            size: 512
          }
        }
      }
    }
  }
  attr {
    key: "dtype"
    value {
      type: DT_FLOAT
    }
  }
  attr {
    key: "seed"
    value {
      i: 2071349299
    }
  }
  attr {
    key: "seed2"
    value {
      i: 233
    }
  }
}
node {
  name: "generator/encoder_4/conv/filter/Initializer/random_normal/mul"
  op: "Mul"
  input: "generator/encoder_4/conv/filter/Initializer/random_normal/RandomStandardNormal"
  input: "generator/encoder_4/conv/filter/Initializer/random_normal/stddev"
  attr {
    key: "T"
    value {
      type: DT_FLOAT
    }
  }
  attr {
    key: "_class"
    value {
      list {
        s: "loc:@generator/encoder_4/conv/filter"
      }
    }
  }
  attr {
    key: "_output_shapes"
    value {
      list {
        shape {
          dim {
            size: 4
          }
          dim {
            size: 4
          }
          dim {
            size: 256
          }
          dim {
            size: 512
          }
        }
      }
    }
  }
}
node {
  name: "generator/encoder_4/conv/filter/Initializer/random_normal"
  op: "Add"
  input: "generator/encoder_4/conv/filter/Initializer/random_normal/mul"
  input: "generator/encoder_4/conv/filter/Initializer/random_normal/mean"
  attr {
    key: "T"
    value {
      type: DT_FLOAT
    }
  }
  attr {
    key: "_class"
    value {
      list {
        s: "loc:@generator/encoder_4/conv/filter"
      }
    }
  }
  attr {
    key: "_output_shapes"
    value {
      list {
        shape {
          dim {
            size: 4
          }
          dim {
            size: 4
          }
          dim {
            size: 256
          }
          dim {
            size: 512
          }
        }
      }
    }
  }
}
node {
  name: "generator/encoder_4/conv/filter"
  op: "VariableV2"
  attr {
    key: "_class"
    value {
      list {
        s: "loc:@generator/encoder_4/conv/filter"
      }
    }
  }
  attr {
    key: "_output_shapes"
    value {
      list {
        shape {
          dim {
            size: 4
          }
          dim {
            size: 4
          }
          dim {
            size: 256
          }
          dim {
            size: 512
          }
        }
      }
    }
  }
  attr {
    key: "container"
    value {
      s: ""
    }
  }
  attr {
    key: "dtype"
    value {
      type: DT_FLOAT
    }
  }
  attr {
    key: "shape"
    value {
      shape {
        dim {
          size: 4
        }
        dim {
          size: 4
        }
        dim {
          size: 256
        }
        dim {
          size: 512
        }
      }
    }
  }
  attr {
    key: "shared_name"
    value {
      s: ""
    }
  }
}
node {
  name: "generator/encoder_4/conv/filter/Assign"
  op: "Assign"
  input: "generator/encoder_4/conv/filter"
  input: "generator/encoder_4/conv/filter/Initializer/random_normal"
  attr {
    key: "T"
    value {
      type: DT_FLOAT
    }
  }
  attr {
    key: "_class"
    value {
      list {
        s: "loc:@generator/encoder_4/conv/filter"
      }
    }
  }
  attr {
    key: "_output_shapes"
    value {
      list {
        shape {
          dim {
            size: 4
          }
          dim {
            size: 4
          }
          dim {
            size: 256
          }
          dim {
            size: 512
          }
        }
      }
    }
  }
  attr {
    key: "use_locking"
    value {
      b: true
    }
  }
  attr {
    key: "validate_shape"
    value {
      b: true
    }
  }
}
node {
  name: "generator/encoder_4/conv/filter/read"
  op: "Identity"
  input: "generator/encoder_4/conv/filter"
  attr {
    key: "T"
    value {
      type: DT_FLOAT
    }
  }
  attr {
    key: "_class"
    value {
      list {
        s: "loc:@generator/encoder_4/conv/filter"
      }
    }
  }
  attr {
    key: "_output_shapes"
    value {
      list {
        shape {
          dim {
            size: 4
          }
          dim {
            size: 4
          }
          dim {
            size: 256
          }
          dim {
            size: 512
          }
        }
      }
    }
  }
}
node {
  name: "generator/encoder_4/conv/Pad/paddings"
  op: "Const"
  attr {
    key: "_output_shapes"
    value {
      list {
        shape {
          dim {
            size: 4
          }
          dim {
            size: 2
          }
        }
      }
    }
  }
  attr {
    key: "dtype"
    value {
      type: DT_INT32
    }
  }
  attr {
    key: "value"
    value {
      tensor {
        dtype: DT_INT32
        tensor_shape {
          dim {
            size: 4
          }
          dim {
            size: 2
          }
        }
        tensor_content: "…"
      }
    }
  }
}
node {
  name: "generator/encoder_4/conv/Pad"
  op: "Pad"
  input: "generator/encoder_4/lrelu/add"
  input: "generator/encoder_4/conv/Pad/paddings"
  attr {
    key: "T"
    value {
      type: DT_FLOAT
    }
  }
  attr {
    key: "Tpaddings"
    value {
      type: DT_INT32
    }
  }
  attr {
    key: "_output_shapes"
    value {
      list {
        shape {
          dim {
            size: 1
          }
          dim {
            size: 34
          }
          dim {
            size: 34
          }
          dim {
            size: 256
          }
        }
      }
    }
  }
}
node {
  name: "generator/encoder_4/conv/Conv2D"
  op: "Conv2D"
  input: "generator/encoder_4/conv/Pad"
  input: "generator/encoder_4/conv/filter/read"
  attr {
    key: "T"
    value {
      type: DT_FLOAT
    }
  }
  attr {
    key: "_output_shapes"
    value {
      list {
        shape {
          dim {
            size: 1
          }
          dim {
            size: 16
          }
          dim {
            size: 16
          }
          dim {
            size: 512
          }
        }
      }
    }
  }
  attr {
    key: "data_format"
    value {
      s: "NHWC"
    }
  }
  attr {
    key: "dilations"
    value {
      list {
        i: 1
        i: 1
        i: 1
        i: 1
      }
    }
  }
  attr {
    key: "padding"
    value {
      s: "VALID"
    }
  }
  attr {
    key: "strides"
    value {
      list {
        i: 1
        i: 2
        i: 2
        i: 1
      }
    }
  }
  attr {
    key: "use_cudnn_on_gpu"
    value {
      b: true
    }
  }
}
node {
  name: "generator/encoder_4/batchnorm/Identity"
  op: "Identity"
  input: "generator/encoder_4/conv/Conv2D"
  attr {
    key: "T"
    value {
      type: DT_FLOAT
    }
  }
  attr {
    key: "_output_shapes"
    value {
      list {
        shape {
          dim {
            size: 1
          }
          dim {
            size: 16
          }
          dim {
            size: 16
          }
          dim {
            size: 512
          }
        }
      }
    }
  }
}
node {
  name: "generator/encoder_4/batchnorm/offset/Initializer/zeros"
  op: "Const"
  attr {
    key: "_class"
    value {
      list {
        s: "loc:@generator/encoder_4/batchnorm/offset"
      }
    }
  }
  attr {
    key: "_output_shapes"
    value {
      list {
        shape {
          dim {
            size: 512
          }
        }
      }
    }
  }
  attr {
    key: "dtype"
    value {
      type: DT_FLOAT
    }
  }
  attr {
    key: "value"
    value {
      tensor {
        dtype: DT_FLOAT
        tensor_shape {
          dim {
            size: 512
          }
        }
        float_val: 0.0
      }
    }
  }
}
node {
  name: "generator/encoder_4/batchnorm/offset"
  op: "VariableV2"
  attr {
    key: "_class"
    value {
      list {
        s: "loc:@generator/encoder_4/batchnorm/offset"
      }
    }
  }
  attr {
    key: "_output_shapes"
    value {
      list {
        shape {
          dim {
            size: 512
          }
        }
      }
    }
  }
  attr {
    key: "container"
    value {
      s: ""
    }
  }
  attr {
    key: "dtype"
    value {
      type: DT_FLOAT
    }
  }
  attr {
    key: "shape"
    value {
      shape {
        dim {
          size: 512
        }
      }
    }
  }
  attr {
    key: "shared_name"
    value {
      s: ""
    }
  }
}
node {
  name: "generator/encoder_4/batchnorm/offset/Assign"
  op: "Assign"
  input: "generator/encoder_4/batchnorm/offset"
  input: "generator/encoder_4/batchnorm/offset/Initializer/zeros"
  attr {
    key: "T"
    value {
      type: DT_FLOAT
    }
  }
  attr {
    key: "_class"
    value {
      list {
        s: "loc:@generator/encoder_4/batchnorm/offset"
      }
    }
  }
  attr {
    key: "_output_shapes"
    value {
      list {
        shape {
          dim {
            size: 512
          }
        }
      }
    }
  }
  attr {
    key: "use_locking"
    value {
      b: true
    }
  }
  attr {
    key: "validate_shape"
    value {
      b: true
    }
  }
}
node {
  name: "generator/encoder_4/batchnorm/offset/read"
  op: "Identity"
  input: "generator/encoder_4/batchnorm/offset"
  attr {
    key: "T"
    value {
      type: DT_FLOAT
    }
  }
  attr {
    key: "_class"
    value {
      list {
        s: "loc:@generator/encoder_4/batchnorm/offset"
      }
    }
  }
  attr {
    key: "_output_shapes"
    value {
      list {
        shape {
          dim {
            size: 512
          }
        }
      }
    }
  }
}
node {
  name: "generator/encoder_4/batchnorm/scale/Initializer/random_normal/shape"
  op: "Const"
  attr {
    key: "_class"
    value {
      list {
        s: "loc:@generator/encoder_4/batchnorm/scale"
      }
    }
  }
  attr {
    key: "_output_shapes"
    value {
      list {
        shape {
          dim {
            size: 1
          }
        }
      }
    }
  }
  attr {
    key: "dtype"
    value {
      type: DT_INT32
    }
  }
  attr {
    key: "value"
    value {
      tensor {
        dtype: DT_INT32
        tensor_shape {
          dim {
            size: 1
          }
        }
        int_val: 512
      }
    }
  }
}
node {
  name: "generator/encoder_4/batchnorm/scale/Initializer/random_normal/mean"
  op: "Const"
  attr {
    key: "_class"
    value {
      list {
        s: "loc:@generator/encoder_4/batchnorm/scale"
      }
    }
  }
  attr {
    key: "_output_shapes"
    value {
      list {
        shape {
        }
      }
    }
  }
  attr {
    key: "dtype"
    value {
      type: DT_FLOAT
    }
  }
  attr {
    key: "value"
    value {
      tensor {
        dtype: DT_FLOAT
        tensor_shape {
        }
        float_val: 1.0
      }
    }
  }
}
node {
  name: "generator/encoder_4/batchnorm/scale/Initializer/random_normal/stddev"
  op: "Const"
  attr {
    key: "_class"
    value {
      list {
        s: "loc:@generator/encoder_4/batchnorm/scale"
      }
    }
  }
  attr {
    key: "_output_shapes"
    value {
      list {
        shape {
        }
      }
    }
  }
  attr {
    key: "dtype"
    value {
      type: DT_FLOAT
    }
  }
  attr {
    key: "value"
    value {
      tensor {
        dtype: DT_FLOAT
        tensor_shape {
        }
        float_val: 0.02
      }
    }
  }
}
node {
  name: "generator/encoder_4/batchnorm/scale/Initializer/random_normal/RandomStandardNormal"
  op: "RandomStandardNormal"
  input: "generator/encoder_4/batchnorm/scale/Initializer/random_normal/shape"
  attr {
    key: "T"
    value {
      type: DT_INT32
    }
  }
  attr {
    key: "_class"
    value {
      list {
        s: "loc:@generator/encoder_4/batchnorm/scale"
      }
    }
  }
  attr {
    key: "_output_shapes"
    value {
      list {
        shape {
          dim {
            size: 512
          }
        }
      }
    }
  }
  attr {
    key: "dtype"
    value {
      type: DT_FLOAT
    }
  }
  attr {
    key: "seed"
    value {
      i: 2071349299
    }
  }
  attr {
    key: "seed2"
    value {
      i: 250
    }
  }
}
node {
  name: "generator/encoder_4/batchnorm/scale/Initializer/random_normal/mul"
  op: "Mul"
  input: "generator/encoder_4/batchnorm/scale/Initializer/random_normal/RandomStandardNormal"
  input: "generator/encoder_4/batchnorm/scale/Initializer/random_normal/stddev"
  attr {
    key: "T"
    value {
      type: DT_FLOAT
    }
  }
  attr {
    key: "_class"
    value {
      list {
        s: "loc:@generator/encoder_4/batchnorm/scale"
      }
    }
  }
  attr {
    key: "_output_shapes"
    value {
      list {
        shape {
          dim {
            size: 512
          }
        }
      }
    }
  }
}
node {
  name: "generator/encoder_4/batchnorm/scale/Initializer/random_normal"
  op: "Add"
  input: "generator/encoder_4/batchnorm/scale/Initializer/random_normal/mul"
  input: "generator/encoder_4/batchnorm/scale/Initializer/random_normal/mean"
  attr {
    key: "T"
    value {
      type: DT_FLOAT
    }
  }
  attr {
    key: "_class"
    value {
      list {
        s: "loc:@generator/encoder_4/batchnorm/scale"
      }
    }
  }
  attr {
    key: "_output_shapes"
    value {
      list {
        shape {
          dim {
            size: 512
          }
        }
      }
    }
  }
}
node {
  name: "generator/encoder_4/batchnorm/scale"
  op: "VariableV2"
  attr {
    key: "_class"
    value {
      list {
        s: "loc:@generator/encoder_4/batchnorm/scale"
      }
    }
  }
  attr {
    key: "_output_shapes"
    value {
      list {
        shape {
          dim {
            size: 512
          }
        }
      }
    }
  }
  attr {
    key: "container"
    value {
      s: ""
    }
  }
  attr {
    key: "dtype"
    value {
      type: DT_FLOAT
    }
  }
  attr {
    key: "shape"
    value {
      shape {
        dim {
          size: 512
        }
      }
    }
  }
  attr {
    key: "shared_name"
    value {
      s: ""
    }
  }
}
node {
  name: "generator/encoder_4/batchnorm/scale/Assign"
  op: "Assign"
  input: "generator/encoder_4/batchnorm/scale"
  input: "generator/encoder_4/batchnorm/scale/Initializer/random_normal"
  attr {
    key: "T"
    value {
      type: DT_FLOAT
    }
  }
  attr {
    key: "_class"
    value {
      list {
        s: "loc:@generator/encoder_4/batchnorm/scale"
      }
    }
  }
  attr {
    key: "_output_shapes"
    value {
      list {
        shape {
          dim {
            size: 512
          }
        }
      }
    }
  }
  attr {
    key: "use_locking"
    value {
      b: true
    }
  }
  attr {
    key: "validate_shape"
    value {
      b: true
    }
  }
}
node {
  name: "generator/encoder_4/batchnorm/scale/read"
  op: "Identity"
  input: "generator/encoder_4/batchnorm/scale"
  attr {
    key: "T"
    value {
      type: DT_FLOAT
    }
  }
  attr {
    key: "_class"
    value {
      list {
        s: "loc:@generator/encoder_4/batchnorm/scale"
      }
    }
  }
  attr {
    key: "_output_shapes"
    value {
      list {
        shape {
          dim {
            size: 512
          }
        }
      }
    }
  }
}
node {
  name: "generator/encoder_4/batchnorm/moments/mean/reduction_indices"
  op: "Const"
  attr {
    key: "_output_shapes"
    value {
      list {
        shape {
          dim {
            size: 3
          }
        }
      }
    }
  }
  attr {
    key: "dtype"
    value {
      type: DT_INT32
    }
  }
  attr {
    key: "value"
    value {
      tensor {
        dtype: DT_INT32
        tensor_shape {
          dim {
            size: 3
          }
        }
        tensor_content: "\000\000\000\000\001\000\000\000\002\000\000\000"
      }
    }
  }
}
node {
  name: "generator/encoder_4/batchnorm/moments/mean"
  op: "Mean"
  input: "generator/encoder_4/batchnorm/Identity"
  input: "generator/encoder_4/batchnorm/moments/mean/reduction_indices"
  attr {
    key: "T"
    value {
      type: DT_FLOAT
    }
  }
  attr {
    key: "Tidx"
    value {
      type: DT_INT32
    }
  }
  attr {
    key: "_output_shapes"
    value {
      list {
        shape {
          dim {
            size: 1
          }
          dim {
            size: 1
          }
          dim {
            size: 1
          }
          dim {
            size: 512
          }
        }
      }
    }
  }
  attr {
    key: "keep_dims"
    value {
      b: true
    }
  }
}
node {
  name: "generator/encoder_4/batchnorm/moments/StopGradient"
  op: "StopGradient"
  input: "generator/encoder_4/batchnorm/moments/mean"
  attr {
    key: "T"
    value {
      type: DT_FLOAT
    }
  }
  attr {
    key: "_output_shapes"
    value {
      list {
        shape {
          dim {
            size: 1
          }
          dim {
            size: 1
          }
          dim {
            size: 1
          }
          dim {
            size: 512
          }
        }
      }
    }
  }
}
node {
  name: "generator/encoder_4/batchnorm/moments/SquaredDifference"
  op: "SquaredDifference"
  input: "generator/encoder_4/batchnorm/Identity"
  input: "generator/encoder_4/batchnorm/moments/StopGradient"
  attr {
    key: "T"
    value {
      type: DT_FLOAT
    }
  }
  attr {
    key: "_output_shapes"
    value {
      list {
        shape {
          dim {
            size: 1
          }
          dim {
            size: 16
          }
          dim {
            size: 16
          }
          dim {
            size: 512
          }
        }
      }
    }
  }
}
node {
  name: "generator/encoder_4/batchnorm/moments/variance/reduction_indices"
  op: "Const"
  attr {
    key: "_output_shapes"
    value {
      list {
        shape {
          dim {
            size: 3
          }
        }
      }
    }
  }
  attr {
    key: "dtype"
    value {
      type: DT_INT32
    }
  }
  attr {
    key: "value"
    value {
      tensor {
        dtype: DT_INT32
        tensor_shape {
          dim {
            size: 3
          }
        }
        tensor_content: "\000\000\000\000\001\000\000\000\002\000\000\000"
      }
    }
  }
}
node {
  name: "generator/encoder_4/batchnorm/moments/variance"
  op: "Mean"
  input: "generator/encoder_4/batchnorm/moments/SquaredDifference"
  input: "generator/encoder_4/batchnorm/moments/variance/reduction_indices"
  attr {
    key: "T"
    value {
      type: DT_FLOAT
    }
  }
  attr {
    key: "Tidx"
    value {
      type: DT_INT32
    }
  }
  attr {
    key: "_output_shapes"
    value {
      list {
        shape {
          dim {
            size: 1
          }
          dim {
            size: 1
          }
          dim {
            size: 1
          }
          dim {
            size: 512
          }
        }
      }
    }
  }
  attr {
    key: "keep_dims"
    value {
      b: true
    }
  }
}
node {
  name: "generator/encoder_4/batchnorm/moments/Squeeze"
  op: "Squeeze"
  input: "generator/encoder_4/batchnorm/moments/mean"
  attr {
    key: "T"
    value {
      type: DT_FLOAT
    }
  }
  attr {
    key: "_output_shapes"
    value {
      list {
        shape {
          dim {
            size: 512
          }
        }
      }
    }
  }
  attr {
    key: "squeeze_dims"
    value {
      list {
        i: 0
        i: 1
        i: 2
      }
    }
  }
}
node {
  name: "generator/encoder_4/batchnorm/moments/Squeeze_1"
  op: "Squeeze"
  input: "generator/encoder_4/batchnorm/moments/variance"
  attr {
    key: "T"
    value {
      type: DT_FLOAT
    }
  }
  attr {
    key: "_output_shapes"
    value {
      list {
        shape {
          dim {
            size: 512
          }
        }
      }
    }
  }
  attr {
    key: "squeeze_dims"
    value {
      list {
        i: 0
        i: 1
        i: 2
      }
    }
  }
}
node {
  name: "generator/encoder_4/batchnorm/batchnorm/add/y"
  op: "Const"
  attr {
    key: "_output_shapes"
    value {
      list {
        shape {
        }
      }
    }
  }
  attr {
    key: "dtype"
    value {
      type: DT_FLOAT
    }
  }
  attr {
    key: "value"
    value {
      tensor {
        dtype: DT_FLOAT
        tensor_shape {
        }
        float_val: 1e-05
      }
    }
  }
}
node {
  name: "generator/encoder_4/batchnorm/batchnorm/add"
  op: "Add"
  input: "generator/encoder_4/batchnorm/moments/Squeeze_1"
  input: "generator/encoder_4/batchnorm/batchnorm/add/y"
  attr {
    key: "T"
    value {
      type: DT_FLOAT
    }
  }
  attr {
    key: "_output_shapes"
    value {
      list {
        shape {
          dim {
            size: 512
          }
        }
      }
    }
  }
}
node {
  name: "generator/encoder_4/batchnorm/batchnorm/Rsqrt"
  op: "Rsqrt"
  input: "generator/encoder_4/batchnorm/batchnorm/add"
  attr {
    key: "T"
    value {
      type: DT_FLOAT
    }
  }
  attr {
    key: "_output_shapes"
    value {
      list {
        shape {
          dim {
            size: 512
          }
        }
      }
    }
  }
}
node {
  name: "generator/encoder_4/batchnorm/batchnorm/mul"
  op: "Mul"
  input: "generator/encoder_4/batchnorm/batchnorm/Rsqrt"
  input: "generator/encoder_4/batchnorm/scale/read"
  attr {
    key: "T"
    value {
      type: DT_FLOAT
    }
  }
  attr {
    key: "_output_shapes"
    value {
      list {
        shape {
          dim {
            size: 512
          }
        }
      }
    }
  }
}
node {
  name: "generator/encoder_4/batchnorm/batchnorm/mul_1"
  op: "Mul"
  input: "generator/encoder_4/batchnorm/Identity"
  input: "generator/encoder_4/batchnorm/batchnorm/mul"
  attr {
    key: "T"
    value {
      type: DT_FLOAT
    }
  }
  attr {
    key: "_output_shapes"
    value {
      list {
        shape {
          dim {
            size: 1
          }
          dim {
            size: 16
          }
          dim {
            size: 16
          }
          dim {
            size: 512
          }
        }
      }
    }
  }
}
node {
  name: "generator/encoder_4/batchnorm/batchnorm/mul_2"
  op: "Mul"
  input: "generator/encoder_4/batchnorm/moments/Squeeze"
  input: "generator/encoder_4/batchnorm/batchnorm/mul"
  attr {
    key: "T"
    value {
      type: DT_FLOAT
    }
  }
  attr {
    key: "_output_shapes"
    value {
      list {
        shape {
          dim {
            size: 512
          }
        }
      }
    }
  }
}
node {
  name: "generator/encoder_4/batchnorm/batchnorm/sub"
  op: "Sub"
  input: "generator/encoder_4/batchnorm/offset/read"
  input: "generator/encoder_4/batchnorm/batchnorm/mul_2"
  attr {
    key: "T"
    value {
      type: DT_FLOAT
    }
  }
  attr {
    key: "_output_shapes"
    value {
      list {
        shape {
          dim {
            size: 512
          }
        }
      }
    }
  }
}
node {
  name: "generator/encoder_4/batchnorm/batchnorm/add_1"
  op: "Add"
  input: "generator/encoder_4/batchnorm/batchnorm/mul_1"
  input: "generator/encoder_4/batchnorm/batchnorm/sub"
  attr {
    key: "T"
    value {
      type: DT_FLOAT
    }
  }
  attr {
    key: "_output_shapes"
    value {
      list {
        shape {
          dim {
            size: 1
          }
          dim {
            size: 16
          }
          dim {
            size: 16
          }
          dim {
            size: 512
          }
        }
      }
    }
  }
}
node {
  name: "generator/encoder_5/lrelu/Identity"
  op: "Identity"
  input: "generator/encoder_4/batchnorm/batchnorm/add_1"
  attr {
    key: "T"
    value {
      type: DT_FLOAT
    }
  }
  attr {
    key: "_output_shapes"
    value {
      list {
        shape {
          dim {
            size: 1
          }
          dim {
            size: 16
          }
          dim {
            size: 16
          }
          dim {
            size: 512
          }
        }
      }
    }
  }
}
node {
  name: "generator/encoder_5/lrelu/mul/x"
  op: "Const"
  attr {
    key: "_output_shapes"
    value {
      list {
        shape {
        }
      }
    }
  }
  attr {
    key: "dtype"
    value {
      type: DT_FLOAT
    }
  }
  attr {
    key: "value"
    value {
      tensor {
        dtype: DT_FLOAT
        tensor_shape {
        }
        float_val: 0.6
      }
    }
  }
}
node {
  name: "generator/encoder_5/lrelu/mul"
  op: "Mul"
  input: "generator/encoder_5/lrelu/mul/x"
  input: "generator/encoder_5/lrelu/Identity"
  attr {
    key: "T"
    value {
      type: DT_FLOAT
    }
  }
  attr {
    key: "_output_shapes"
    value {
      list {
        shape {
          dim {
            size: 1
          }
          dim {
            size: 16
          }
          dim {
            size: 16
          }
          dim {
            size: 512
          }
        }
      }
    }
  }
}
node {
  name: "generator/encoder_5/lrelu/Abs"
  op: "Abs"
  input: "generator/encoder_5/lrelu/Identity"
  attr {
    key: "T"
    value {
      type: DT_FLOAT
    }
  }
  attr {
    key: "_output_shapes"
    value {
      list {
        shape {
          dim {
            size: 1
          }
          dim {
            size: 16
          }
          dim {
            size: 16
          }
          dim {
            size: 512
          }
        }
      }
    }
  }
}
node {
  name: "generator/encoder_5/lrelu/mul_1/x"
  op: "Const"
  attr {
    key: "_output_shapes"
    value {
      list {
        shape {
        }
      }
    }
  }
  attr {
    key: "dtype"
    value {
      type: DT_FLOAT
    }
  }
  attr {
    key: "value"
    value {
      tensor {
        dtype: DT_FLOAT
        tensor_shape {
        }
…
  input: "report_uninitialized_variables/IsVariableInitialized_94"
  input: "report_uninitialized_variables/IsVariableInitialized_95"
  input: "report_uninitialized_variables/IsVariableInitialized_96"
  input: "report_uninitialized_variables/IsVariableInitialized_97"
  input: "report_uninitialized_variables/IsVariableInitialized_98"
  input: "report_uninitialized_variables/IsVariableInitialized_99"
  input: "report_uninitialized_variables/IsVariableInitialized_100"
  input: "report_uninitialized_variables/IsVariableInitialized_101"
  input: "report_uninitialized_variables/IsVariableInitialized_102"
  input: "report_uninitialized_variables/IsVariableInitialized_103"
  input: "report_uninitialized_variables/IsVariableInitialized_104"
  input: "report_uninitialized_variables/IsVariableInitialized_105"
  input: "report_uninitialized_variables/IsVariableInitialized_106"
  input: "report_uninitialized_variables/IsVariableInitialized_107"
  input: "report_uninitialized_variables/IsVariableInitialized_108"
  input: "report_uninitialized_variables/IsVariableInitialized_109"
  input: "report_uninitialized_variables/IsVariableInitialized_110"
  input: "report_uninitialized_variables/IsVariableInitialized_111"
  input: "report_uninitialized_variables/IsVariableInitialized_112"
  input: "report_uninitialized_variables/IsVariableInitialized_113"
  input: "report_uninitialized_variables/IsVariableInitialized_114"
  input: "report_uninitialized_variables/IsVariableInitialized_115"
  input: "report_uninitialized_variables/IsVariableInitialized_116"
  input: "report_uninitialized_variables/IsVariableInitialized_117"
  input: "report_uninitialized_variables/IsVariableInitialized_118"
  input: "report_uninitialized_variables/IsVariableInitialized_119"
  input: "report_uninitialized_variables/IsVariableInitialized_120"
  input: "report_uninitialized_variables/IsVariableInitialized_121"
  input: "report_uninitialized_variables/IsVariableInitialized_122"
  input: "report_uninitialized_variables/IsVariableInitialized_123"
  input: "report_uninitialized_variables/IsVariableInitialized_124"
  input: "report_uninitialized_variables/IsVariableInitialized_125"
  input: "report_uninitialized_variables/IsVariableInitialized_126"
  input: "report_uninitialized_variables/IsVariableInitialized_127"
  input: "report_uninitialized_variables/IsVariableInitialized_128"
  input: "report_uninitialized_variables/IsVariableInitialized_129"
  input: "report_uninitialized_variables/IsVariableInitialized_130"
  input: "report_uninitialized_variables/IsVariableInitialized_131"
  input: "report_uninitialized_variables/IsVariableInitialized_132"
  input: "report_uninitialized_variables/IsVariableInitialized_133"
  input: "report_uninitialized_variables/IsVariableInitialized_134"
  input: "report_uninitialized_variables/IsVariableInitialized_135"
  input: "report_uninitialized_variables/IsVariableInitialized_136"
  input: "report_uninitialized_variables/IsVariableInitialized_137"
  input: "report_uninitialized_variables/IsVariableInitialized_138"
  input: "report_uninitialized_variables/IsVariableInitialized_139"
  input: "report_uninitialized_variables/IsVariableInitialized_140"
  input: "report_uninitialized_variables/IsVariableInitialized_141"
  input: "report_uninitialized_variables/IsVariableInitialized_142"
  input: "report_uninitialized_variables/IsVariableInitialized_143"
  input: "report_uninitialized_variables/IsVariableInitialized_144"
  input: "report_uninitialized_variables/IsVariableInitialized_145"
  input: "report_uninitialized_variables/IsVariableInitialized_146"
  input: "report_uninitialized_variables/IsVariableInitialized_147"
  input: "report_uninitialized_variables/IsVariableInitialized_148"
  input: "report_uninitialized_variables/IsVariableInitialized_149"
  input: "report_uninitialized_variables/IsVariableInitialized_150"
  input: "report_uninitialized_variables/IsVariableInitialized_151"
  input: "report_uninitialized_variables/IsVariableInitialized_152"
  input: "report_uninitialized_variables/IsVariableInitialized_153"
  input: "report_uninitialized_variables/IsVariableInitialized_154"
  input: "report_uninitialized_variables/IsVariableInitialized_155"
  input: "report_uninitialized_variables/IsVariableInitialized_156"
  input: "report_uninitialized_variables/IsVariableInitialized_157"
  input: "report_uninitialized_variables/IsVariableInitialized_158"
  input: "report_uninitialized_variables/IsVariableInitialized_159"
  input: "report_uninitialized_variables/IsVariableInitialized_160"
  input: "report_uninitialized_variables/IsVariableInitialized_161"
  input: "report_uninitialized_variables/IsVariableInitialized_162"
  input: "report_uninitialized_variables/IsVariableInitialized_163"
  input: "report_uninitialized_variables/IsVariableInitialized_164"
  input: "report_uninitialized_variables/IsVariableInitialized_165"
  input: "report_uninitialized_variables/IsVariableInitialized_166"
  input: "report_uninitialized_variables/IsVariableInitialized_167"
  input: "report_uninitialized_variables/IsVariableInitialized_168"
  input: "report_uninitialized_variables/IsVariableInitialized_169"
  input: "report_uninitialized_variables/IsVariableInitialized_170"
  input: "report_uninitialized_variables/IsVariableInitialized_171"
  input: "report_uninitialized_variables/IsVariableInitialized_172"
  device: "/device:CPU:0"
  attr {
    key: "N"
    value {
      i: 173
    }
  }
  attr {
    key: "T"
    value {
      type: DT_BOOL
    }
  }
  attr {
    key: "_output_shapes"
    value {
      list {
        shape {
          dim {
            size: 173
          }
        }
      }
    }
  }
  attr {
    key: "axis"
    value {
      i: 0
    }
  }
}
node {
  name: "report_uninitialized_variables/LogicalNot"
  op: "LogicalNot"
  input: "report_uninitialized_variables/stack"
  device: "/device:CPU:0"
  attr {
    key: "_output_shapes"
    value {
      list {
        shape {
          dim {
            size: 173
          }
        }
      }
    }
  }
}
node {
  name: "report_uninitialized_variables/Const"
  op: "Const"
  device: "/device:CPU:0"
  attr {
    key: "_output_shapes"
    value {
      list {
        shape {
          dim {
            size: 173
          }
        }
      }
    }
  }
  attr {
    key: "dtype"
    value {
      type: DT_STRING
    }
  }
  attr {
    key: "value"
    value {
      tensor {
        dtype: DT_STRING
        tensor_shape {
          dim {
            size: 173
          }
        }
        string_val: "generator/encoder_1/conv/filter"
        string_val: "generator/encoder_2/conv/filter"
        string_val: "generator/encoder_2/batchnorm/offset"
        string_val: "generator/encoder_2/batchnorm/scale"
        string_val: "generator/encoder_3/conv/filter"
        string_val: "generator/encoder_3/batchnorm/offset"
        string_val: "generator/encoder_3/batchnorm/scale"
        string_val: "generator/encoder_4/conv/filter"
        string_val: "generator/encoder_4/batchnorm/offset"
        string_val: "generator/encoder_4/batchnorm/scale"
        string_val: "generator/encoder_5/conv/filter"
        string_val: "generator/encoder_5/batchnorm/offset"
        string_val: "generator/encoder_5/batchnorm/scale"
        string_val: "generator/encoder_6/conv/filter"
        string_val: "generator/encoder_6/batchnorm/offset"
        string_val: "generator/encoder_6/batchnorm/scale"
        string_val: "generator/encoder_7/conv/filter"
        string_val: "generator/encoder_7/batchnorm/offset"
        string_val: "generator/encoder_7/batchnorm/scale"
        string_val: "generator/encoder_8/conv/filter"
        string_val: "generator/encoder_8/batchnorm/offset"
        string_val: "generator/encoder_8/batchnorm/scale"
        string_val: "generator/decoder_8/deconv/filter"
        string_val: "generator/decoder_8/batchnorm/offset"
        string_val: "generator/decoder_8/batchnorm/scale"
        string_val: "generator/decoder_7/deconv/filter"
        string_val: "generator/decoder_7/batchnorm/offset"
        string_val: "generator/decoder_7/batchnorm/scale"
        string_val: "generator/decoder_6/deconv/filter"
        string_val: "generator/decoder_6/batchnorm/offset"
        string_val: "generator/decoder_6/batchnorm/scale"
        string_val: "generator/decoder_5/deconv/filter"
        string_val: "generator/decoder_5/batchnorm/offset"
        string_val: "generator/decoder_5/batchnorm/scale"
        string_val: "generator/decoder_4/deconv/filter"
        string_val: "generator/decoder_4/batchnorm/offset"
        string_val: "generator/decoder_4/batchnorm/scale"
        string_val: "generator/decoder_3/deconv/filter"
        string_val: "generator/decoder_3/batchnorm/offset"
        string_val: "generator/decoder_3/batchnorm/scale"
        string_val: "generator/decoder_2/deconv/filter"
        string_val: "generator/decoder_2/batchnorm/offset"
        string_val: "generator/decoder_2/batchnorm/scale"
        string_val: "generator/decoder_1/deconv/filter"
        string_val: "discriminator/layer_1/conv/filter"
        string_val: "discriminator/layer_2/conv/filter"
        string_val: "discriminator/layer_2/batchnorm/offset"
        string_val: "discriminator/layer_2/batchnorm/scale"
        string_val: "discriminator/layer_3/conv/filter"
        string_val: "discriminator/layer_3/batchnorm/offset"
        string_val: "discriminator/layer_3/batchnorm/scale"
        string_val: "discriminator/layer_4/conv/filter"
        string_val: "discriminator/layer_4/batchnorm/offset"
        string_val: "discriminator/layer_4/batchnorm/scale"
        string_val: "discriminator/layer_5/conv/filter"
        string_val: "discriminator_train/beta1_power"
        string_val: "discriminator_train/beta2_power"
        string_val: "discriminator/layer_1/conv/filter/Adam"
        string_val: "discriminator/layer_1/conv/filter/Adam_1"
        string_val: "discriminator/layer_2/conv/filter/Adam"
        string_val: "discriminator/layer_2/conv/filter/Adam_1"
        string_val: "discriminator/layer_2/batchnorm/offset/Adam"
        string_val: "discriminator/layer_2/batchnorm/offset/Adam_1"
        string_val: "discriminator/layer_2/batchnorm/scale/Adam"
        string_val: "discriminator/layer_2/batchnorm/scale/Adam_1"
        string_val: "discriminator/layer_3/conv/filter/Adam"
        string_val: "discriminator/layer_3/conv/filter/Adam_1"
        string_val: "discriminator/layer_3/batchnorm/offset/Adam"
        string_val: "discriminator/layer_3/batchnorm/offset/Adam_1"
        string_val: "discriminator/layer_3/batchnorm/scale/Adam"
        string_val: "discriminator/layer_3/batchnorm/scale/Adam_1"
        string_val: "discriminator/layer_4/conv/filter/Adam"
        string_val: "discriminator/layer_4/conv/filter/Adam_1"
        string_val: "discriminator/layer_4/batchnorm/offset/Adam"
        string_val: "discriminator/layer_4/batchnorm/offset/Adam_1"
        string_val: "discriminator/layer_4/batchnorm/scale/Adam"
        string_val: "discriminator/layer_4/batchnorm/scale/Adam_1"
        string_val: "discriminator/layer_5/conv/filter/Adam"
        string_val: "discriminator/layer_5/conv/filter/Adam_1"
        string_val: "generator_train/beta1_power"
        string_val: "generator_train/beta2_power"
        string_val: "generator/encoder_1/conv/filter/Adam"
        string_val: "generator/encoder_1/conv/filter/Adam_1"
        string_val: "generator/encoder_2/conv/filter/Adam"
        string_val: "generator/encoder_2/conv/filter/Adam_1"
        string_val: "generator/encoder_2/batchnorm/offset/Adam"
        string_val: "generator/encoder_2/batchnorm/offset/Adam_1"
        string_val: "generator/encoder_2/batchnorm/scale/Adam"
        string_val: "generator/encoder_2/batchnorm/scale/Adam_1"
        string_val: "generator/encoder_3/conv/filter/Adam"
        string_val: "generator/encoder_3/conv/filter/Adam_1"
        string_val: "generator/encoder_3/batchnorm/offset/Adam"
        string_val: "generator/encoder_3/batchnorm/offset/Adam_1"
        string_val: "generator/encoder_3/batchnorm/scale/Adam"
        string_val: "generator/encoder_3/batchnorm/scale/Adam_1"
        string_val: "generator/encoder_4/conv/filter/Adam"
        string_val: "generator/encoder_4/conv/filter/Adam_1"
        string_val: "generator/encoder_4/batchnorm/offset/Adam"
        string_val: "generator/encoder_4/batchnorm/offset/Adam_1"
        string_val: "generator/encoder_4/batchnorm/scale/Adam"
        string_val: "generator/encoder_4/batchnorm/scale/Adam_1"
        string_val: "generator/encoder_5/conv/filter/Adam"
        string_val: "generator/encoder_5/conv/filter/Adam_1"
        string_val: "generator/encoder_5/batchnorm/offset/Adam"
        string_val: "generator/encoder_5/batchnorm/offset/Adam_1"
        string_val: "generator/encoder_5/batchnorm/scale/Adam"
        string_val: "generator/encoder_5/batchnorm/scale/Adam_1"
        string_val: "generator/encoder_6/conv/filter/Adam"
        string_val: "generator/encoder_6/conv/filter/Adam_1"
        string_val: "generator/encoder_6/batchnorm/offset/Adam"
        string_val: "generator/encoder_6/batchnorm/offset/Adam_1"
        string_val: "generator/encoder_6/batchnorm/scale/Adam"
        string_val: "generator/encoder_6/batchnorm/scale/Adam_1"
        string_val: "generator/encoder_7/conv/filter/Adam"
        string_val: "generator/encoder_7/conv/filter/Adam_1"
        string_val: "generator/encoder_7/batchnorm/offset/Adam"
        string_val: "generator/encoder_7/batchnorm/offset/Adam_1"
        string_val: "generator/encoder_7/batchnorm/scale/Adam"
        string_val: "generator/encoder_7/batchnorm/scale/Adam_1"
        string_val: "generator/encoder_8/conv/filter/Adam"
        string_val: "generator/encoder_8/conv/filter/Adam_1"
        string_val: "generator/encoder_8/batchnorm/offset/Adam"
        string_val: "generator/encoder_8/batchnorm/offset/Adam_1"
        string_val: "generator/encoder_8/batchnorm/scale/Adam"
        string_val: "generator/encoder_8/batchnorm/scale/Adam_1"
        string_val: "generator/decoder_8/deconv/filter/Adam"
        string_val: "generator/decoder_8/deconv/filter/Adam_1"
        string_val: "generator/decoder_8/batchnorm/offset/Adam"
        string_val: "generator/decoder_8/batchnorm/offset/Adam_1"
        string_val: "generator/decoder_8/batchnorm/scale/Adam"
        string_val: "generator/decoder_8/batchnorm/scale/Adam_1"
        string_val: "generator/decoder_7/deconv/filter/Adam"
        string_val: "generator/decoder_7/deconv/filter/Adam_1"
        string_val: "generator/decoder_7/batchnorm/offset/Adam"
        string_val: "generator/decoder_7/batchnorm/offset/Adam_1"
        string_val: "generator/decoder_7/batchnorm/scale/Adam"
        string_val: "generator/decoder_7/batchnorm/scale/Adam_1"
        string_val: "generator/decoder_6/deconv/filter/Adam"
        string_val: "generator/decoder_6/deconv/filter/Adam_1"
        string_val: "generator/decoder_6/batchnorm/offset/Adam"
        string_val: "generator/decoder_6/batchnorm/offset/Adam_1"
        string_val: "generator/decoder_6/batchnorm/scale/Adam"
        string_val: "generator/decoder_6/batchnorm/scale/Adam_1"
        string_val: "generator/decoder_5/deconv/filter/Adam"
        string_val: "generator/decoder_5/deconv/filter/Adam_1"
        string_val: "generator/decoder_5/batchnorm/offset/Adam"
        string_val: "generator/decoder_5/batchnorm/offset/Adam_1"
        string_val: "generator/decoder_5/batchnorm/scale/Adam"
        string_val: "generator/decoder_5/batchnorm/scale/Adam_1"
        string_val: "generator/decoder_4/deconv/filter/Adam"
        string_val: "generator/decoder_4/deconv/filter/Adam_1"
        string_val: "generator/decoder_4/batchnorm/offset/Adam"
        string_val: "generator/decoder_4/batchnorm/offset/Adam_1"
        string_val: "generator/decoder_4/batchnorm/scale/Adam"
        string_val: "generator/decoder_4/batchnorm/scale/Adam_1"
        string_val: "generator/decoder_3/deconv/filter/Adam"
        string_val: "generator/decoder_3/deconv/filter/Adam_1"
        string_val: "generator/decoder_3/batchnorm/offset/Adam"
        string_val: "generator/decoder_3/batchnorm/offset/Adam_1"
        string_val: "generator/decoder_3/batchnorm/scale/Adam"
        string_val: "generator/decoder_3/batchnorm/scale/Adam_1"
        string_val: "generator/decoder_2/deconv/filter/Adam"
        string_val: "generator/decoder_2/deconv/filter/Adam_1"
        string_val: "generator/decoder_2/batchnorm/offset/Adam"
        string_val: "generator/decoder_2/batchnorm/offset/Adam_1"
        string_val: "generator/decoder_2/batchnorm/scale/Adam"
        string_val: "generator/decoder_2/batchnorm/scale/Adam_1"
        string_val: "generator/decoder_1/deconv/filter/Adam"
        string_val: "generator/decoder_1/deconv/filter/Adam_1"
        string_val: "discriminator_loss/Mean/ExponentialMovingAverage"
        string_val: "generator_loss/Mean/ExponentialMovingAverage"
        string_val: "generator_loss/Mean_1/ExponentialMovingAverage"
        string_val: "global_step"
      }
    }
  }
}
node {
  name: "report_uninitialized_variables/boolean_mask/Shape"
  op: "Const"
  device: "/device:CPU:0"
  attr {
    key: "_output_shapes"
    value {
      list {
        shape {
          dim {
            size: 1
          }
        }
      }
    }
  }
  attr {
    key: "dtype"
    value {
      type: DT_INT32
    }
  }
  attr {
    key: "value"
    value {
      tensor {
        dtype: DT_INT32
        tensor_shape {
          dim {
            size: 1
          }
        }
        int_val: 173
      }
    }
  }
}
node {
  name: "report_uninitialized_variables/boolean_mask/strided_slice/stack"
  op: "Const"
  device: "/device:CPU:0"
  attr {
    key: "_output_shapes"
    value {
      list {
        shape {
          dim {
            size: 1
          }
        }
      }
    }
  }
  attr {
    key: "dtype"
    value {
      type: DT_INT32
    }
  }
  attr {
    key: "value"
    value {
      tensor {
        dtype: DT_INT32
        tensor_shape {
          dim {
            size: 1
          }
        }
        int_val: 0
      }
    }
  }
}
node {
  name: "report_uninitialized_variables/boolean_mask/strided_slice/stack_1"
  op: "Const"
  device: "/device:CPU:0"
  attr {
    key: "_output_shapes"
    value {
      list {
        shape {
          dim {
            size: 1
          }
        }
      }
    }
  }
  attr {
    key: "dtype"
    value {
      type: DT_INT32
    }
  }
  attr {
    key: "value"
    value {
      tensor {
        dtype: DT_INT32
        tensor_shape {
          dim {
            size: 1
          }
        }
        int_val: 1
      }
    }
  }
}
node {
  name: "report_uninitialized_variables/boolean_mask/strided_slice/stack_2"
  op: "Const"
  device: "/device:CPU:0"
  attr {
    key: "_output_shapes"
    value {
      list {
        shape {
          dim {
            size: 1
          }
        }
      }
    }
  }
  attr {
    key: "dtype"
    value {
      type: DT_INT32
    }
  }
  attr {
    key: "value"
    value {
      tensor {
        dtype: DT_INT32
        tensor_shape {
          dim {
            size: 1
          }
        }
        int_val: 1
      }
    }
  }
}
node {
  name: "report_uninitialized_variables/boolean_mask/strided_slice"
  op: "StridedSlice"
  input: "report_uninitialized_variables/boolean_mask/Shape"
  input: "report_uninitialized_variables/boolean_mask/strided_slice/stack"
  input: "report_uninitialized_variables/boolean_mask/strided_slice/stack_1"
  input: "report_uninitialized_variables/boolean_mask/strided_slice/stack_2"
  device: "/device:CPU:0"
  attr {
    key: "Index"
    value {
      type: DT_INT32
    }
  }
  attr {
    key: "T"
    value {
      type: DT_INT32
    }
  }
  attr {
    key: "_output_shapes"
    value {
      list {
        shape {
          dim {
            size: 1
          }
        }
      }
    }
  }
  attr {
    key: "begin_mask"
    value {
      i: 0
    }
  }
  attr {
    key: "ellipsis_mask"
    value {
      i: 0
    }
  }
  attr {
    key: "end_mask"
    value {
      i: 0
    }
  }
  attr {
    key: "new_axis_mask"
    value {
      i: 0
    }
  }
  attr {
    key: "shrink_axis_mask"
    value {
      i: 0
    }
  }
}
node {
  name: "report_uninitialized_variables/boolean_mask/Prod/reduction_indices"
  op: "Const"
  device: "/device:CPU:0"
  attr {
    key: "_output_shapes"
    value {
      list {
        shape {
          dim {
            size: 1
          }
        }
      }
    }
  }
  attr {
    key: "dtype"
    value {
      type: DT_INT32
    }
  }
  attr {
    key: "value"
    value {
      tensor {
        dtype: DT_INT32
        tensor_shape {
          dim {
            size: 1
          }
        }
        int_val: 0
      }
    }
  }
}
node {
  name: "report_uninitialized_variables/boolean_mask/Prod"
  op: "Prod"
  input: "report_uninitialized_variables/boolean_mask/strided_slice"
  input: "report_uninitialized_variables/boolean_mask/Prod/reduction_indices"
  device: "/device:CPU:0"
  attr {
    key: "T"
    value {
      type: DT_INT32
    }
  }
  attr {
    key: "Tidx"
    value {
      type: DT_INT32
    }
  }
  attr {
    key: "_output_shapes"
    value {
      list {
        shape {
        }
      }
    }
  }
  attr {
    key: "keep_dims"
    value {
      b: false
    }
  }
}
node {
  name: "report_uninitialized_variables/boolean_mask/Shape_1"
  op: "Const"
  device: "/device:CPU:0"
  attr {
    key: "_output_shapes"
    value {
      list {
        shape {
          dim {
            size: 1
          }
        }
      }
    }
  }
  attr {
    key: "dtype"
    value {
      type: DT_INT32
    }
  }
  attr {
    key: "value"
    value {
      tensor {
        dtype: DT_INT32
        tensor_shape {
          dim {
            size: 1
          }
        }
        int_val: 173
      }
    }
  }
}
node {
  name: "report_uninitialized_variables/boolean_mask/strided_slice_1/stack"
  op: "Const"
  device: "/device:CPU:0"
  attr {
    key: "_output_shapes"
    value {
      list {
        shape {
          dim {
            size: 1
          }
        }
      }
    }
  }
  attr {
    key: "dtype"
    value {
      type: DT_INT32
    }
  }
  attr {
    key: "value"
    value {
      tensor {
        dtype: DT_INT32
        tensor_shape {
          dim {
            size: 1
          }
        }
        int_val: 0
      }
    }
  }
}
node {
  name: "report_uninitialized_variables/boolean_mask/strided_slice_1/stack_1"
  op: "Const"
  device: "/device:CPU:0"
  attr {
    key: "_output_shapes"
    value {
      list {
        shape {
          dim {
            size: 1
          }
        }
      }
    }
  }
  attr {
    key: "dtype"
    value {
      type: DT_INT32
    }
  }
  attr {
    key: "value"
    value {
      tensor {
        dtype: DT_INT32
        tensor_shape {
          dim {
            size: 1
          }
        }
        int_val: 0
      }
    }
  }
}
node {
  name: "report_uninitialized_variables/boolean_mask/strided_slice_1/stack_2"
  op: "Const"
  device: "/device:CPU:0"
  attr {
    key: "_output_shapes"
    value {
      list {
        shape {
          dim {
            size: 1
          }
        }
      }
    }
  }
  attr {
    key: "dtype"
    value {
      type: DT_INT32
    }
  }
  attr {
    key: "value"
    value {
      tensor {
        dtype: DT_INT32
        tensor_shape {
          dim {
            size: 1
          }
        }
        int_val: 1
      }
    }
  }
}
node {
  name: "report_uninitialized_variables/boolean_mask/strided_slice_1"
  op: "StridedSlice"
  input: "report_uninitialized_variables/boolean_mask/Shape_1"
  input: "report_uninitialized_variables/boolean_mask/strided_slice_1/stack"
  input: "report_uninitialized_variables/boolean_mask/strided_slice_1/stack_1"
  input: "report_uninitialized_variables/boolean_mask/strided_slice_1/stack_2"
  device: "/device:CPU:0"
  attr {
    key: "Index"
    value {
      type: DT_INT32
    }
  }
  attr {
    key: "T"
    value {
      type: DT_INT32
    }
  }
  attr {
    key: "_output_shapes"
    value {
      list {
        shape {
          dim {
          }
        }
      }
    }
  }
  attr {
    key: "begin_mask"
    value {
      i: 1
    }
  }
  attr {
    key: "ellipsis_mask"
    value {
      i: 0
    }
  }
  attr {
    key: "end_mask"
    value {
      i: 0
    }
  }
  attr {
    key: "new_axis_mask"
    value {
      i: 0
    }
  }
  attr {
    key: "shrink_axis_mask"
    value {
      i: 0
    }
  }
}
node {
  name: "report_uninitialized_variables/boolean_mask/Shape_2"
  op: "Const"
  device: "/device:CPU:0"
  attr {
    key: "_output_shapes"
    value {
      list {
        shape {
          dim {
            size: 1
          }
        }
      }
    }
  }
  attr {
    key: "dtype"
    value {
      type: DT_INT32
    }
  }
  attr {
    key: "value"
    value {
      tensor {
        dtype: DT_INT32
        tensor_shape {
          dim {
            size: 1
          }
        }
        int_val: 173
      }
    }
  }
}
node {
  name: "report_uninitialized_variables/boolean_mask/strided_slice_2/stack"
  op: "Const"
  device: "/device:CPU:0"
  attr {
    key: "_output_shapes"
    value {
      list {
        shape {
          dim {
            size: 1
          }
        }
      }
    }
  }
  attr {
    key: "dtype"
    value {
      type: DT_INT32
    }
  }
  attr {
    key: "value"
    value {
      tensor {
        dtype: DT_INT32
        tensor_shape {
          dim {
            size: 1
          }
        }
        int_val: 1
      }
    }
  }
}
node {
  name: "report_uninitialized_variables/boolean_mask/strided_slice_2/stack_1"
  op: "Const"
  device: "/device:CPU:0"
  attr {
    key: "_output_shapes"
    value {
      list {
        shape {
          dim {
            size: 1
          }
        }
      }
    }
  }
  attr {
    key: "dtype"
    value {
      type: DT_INT32
    }
  }
  attr {
    key: "value"
    value {
      tensor {
        dtype: DT_INT32
        tensor_shape {
          dim {
            size: 1
          }
        }
        int_val: 0
      }
    }
  }
}
node {
  name: "report_uninitialized_variables/boolean_mask/strided_slice_2/stack_2"
  op: "Const"
  device: "/device:CPU:0"
  attr {
    key: "_output_shapes"
    value {
      list {
        shape {
          dim {
            size: 1
          }
        }
      }
    }
  }
  attr {
    key: "dtype"
    value {
      type: DT_INT32
    }
  }
  attr {
    key: "value"
    value {
      tensor {
        dtype: DT_INT32
        tensor_shape {
          dim {
            size: 1
          }
        }
        int_val: 1
      }
    }
  }
}
node {
  name: "report_uninitialized_variables/boolean_mask/strided_slice_2"
  op: "StridedSlice"
  input: "report_uninitialized_variables/boolean_mask/Shape_2"
  input: "report_uninitialized_variables/boolean_mask/strided_slice_2/stack"
  input: "report_uninitialized_variables/boolean_mask/strided_slice_2/stack_1"
  input: "report_uninitialized_variables/boolean_mask/strided_slice_2/stack_2"
  device: "/device:CPU:0"
  attr {
    key: "Index"
    value {
      type: DT_INT32
    }
  }
  attr {
    key: "T"
    value {
      type: DT_INT32
    }
  }
  attr {
    key: "_output_shapes"
    value {
      list {
        shape {
          dim {
          }
        }
      }
    }
  }
  attr {
    key: "begin_mask"
    value {
      i: 0
    }
  }
  attr {
    key: "ellipsis_mask"
    value {
      i: 0
    }
  }
  attr {
    key: "end_mask"
    value {
      i: 1
    }
  }
  attr {
    key: "new_axis_mask"
    value {
      i: 0
    }
  }
  attr {
    key: "shrink_axis_mask"
    value {
      i: 0
    }
  }
}
node {
  name: "report_uninitialized_variables/boolean_mask/concat/values_1"
  op: "Pack"
  input: "report_uninitialized_variables/boolean_mask/Prod"
  device: "/device:CPU:0"
  attr {
    key: "N"
    value {
      i: 1
    }
  }
  attr {
    key: "T"
    value {
      type: DT_INT32
    }
  }
  attr {
    key: "_output_shapes"
    value {
      list {
        shape {
          dim {
            size: 1
          }
        }
      }
    }
  }
  attr {
    key: "axis"
    value {
      i: 0
    }
  }
}
node {
  name: "report_uninitialized_variables/boolean_mask/concat/axis"
  op: "Const"
  device: "/device:CPU:0"
  attr {
    key: "_output_shapes"
    value {
      list {
        shape {
        }
      }
    }
  }
  attr {
    key: "dtype"
    value {
      type: DT_INT32
    }
  }
  attr {
    key: "value"
    value {
      tensor {
        dtype: DT_INT32
        tensor_shape {
        }
        int_val: 0
      }
    }
  }
}
node {
  name: "report_uninitialized_variables/boolean_mask/concat"
  op: "ConcatV2"
  input: "report_uninitialized_variables/boolean_mask/strided_slice_1"
  input: "report_uninitialized_variables/boolean_mask/concat/values_1"
  input: "report_uninitialized_variables/boolean_mask/strided_slice_2"
  input: "report_uninitialized_variables/boolean_mask/concat/axis"
  device: "/device:CPU:0"
  attr {
    key: "N"
    value {
      i: 3
    }
  }
  attr {
    key: "T"
    value {
      type: DT_INT32
    }
  }
  attr {
    key: "Tidx"
    value {
      type: DT_INT32
    }
  }
  attr {
    key: "_output_shapes"
    value {
      list {
        shape {
          dim {
            size: 1
          }
        }
      }
    }
  }
}
node {
  name: "report_uninitialized_variables/boolean_mask/Reshape"
  op: "Reshape"
  input: "report_uninitialized_variables/Const"
  input: "report_uninitialized_variables/boolean_mask/concat"
  device: "/device:CPU:0"
  attr {
    key: "T"
    value {
      type: DT_STRING
    }
  }
  attr {
    key: "Tshape"
    value {
      type: DT_INT32
    }
  }
  attr {
    key: "_output_shapes"
    value {
      list {
        shape {
          dim {
            size: 173
          }
        }
      }
    }
  }
}
node {
  name: "report_uninitialized_variables/boolean_mask/Reshape_1/shape"
  op: "Const"
  device: "/device:CPU:0"
  attr {
    key: "_output_shapes"
    value {
      list {
        shape {
          dim {
            size: 1
          }
        }
      }
    }
  }
  attr {
    key: "dtype"
    value {
      type: DT_INT32
    }
  }
  attr {
    key: "value"
    value {
      tensor {
        dtype: DT_INT32
        tensor_shape {
          dim {
            size: 1
          }
        }
        int_val: -1
      }
    }
  }
}
node {
  name: "report_uninitialized_variables/boolean_mask/Reshape_1"
  op: "Reshape"
  input: "report_uninitialized_variables/LogicalNot"
  input: "report_uninitialized_variables/boolean_mask/Reshape_1/shape"
  device: "/device:CPU:0"
  attr {
    key: "T"
    value {
      type: DT_BOOL
    }
  }
  attr {
    key: "Tshape"
    value {
      type: DT_INT32
    }
  }
  attr {
    key: "_output_shapes"
    value {
      list {
        shape {
          dim {
            size: 173
          }
        }
      }
    }
  }
}
node {
  name: "report_uninitialized_variables/boolean_mask/Where"
  op: "Where"
  input: "report_uninitialized_variables/boolean_mask/Reshape_1"
  device: "/device:CPU:0"
  attr {
    key: "T"
    value {
      type: DT_BOOL
    }
  }
  attr {
    key: "_output_shapes"
    value {
      list {
        shape {
          dim {
            size: -1
          }
          dim {
            size: 1
          }
        }
      }
    }
  }
}
node {
  name: "report_uninitialized_variables/boolean_mask/Squeeze"
  op: "Squeeze"
  input: "report_uninitialized_variables/boolean_mask/Where"
  device: "/device:CPU:0"
  attr {
    key: "T"
    value {
      type: DT_INT64
    }
  }
  attr {
    key: "_output_shapes"
    value {
      list {
        shape {
          dim {
            size: -1
          }
        }
      }
    }
  }
  attr {
    key: "squeeze_dims"
    value {
      list {
        i: 1
      }
    }
  }
}
node {
  name: "report_uninitialized_variables/boolean_mask/GatherV2/axis"
  op: "Const"
  device: "/device:CPU:0"
  attr {
    key: "_output_shapes"
    value {
      list {
        shape {
        }
      }
    }
  }
  attr {
    key: "dtype"
    value {
      type: DT_INT32
    }
  }
  attr {
    key: "value"
    value {
      tensor {
        dtype: DT_INT32
        tensor_shape {
        }
        int_val: 0
      }
    }
  }
}
node {
  name: "report_uninitialized_variables/boolean_mask/GatherV2"
  op: "GatherV2"
  input: "report_uninitialized_variables/boolean_mask/Reshape"
  input: "report_uninitialized_variables/boolean_mask/Squeeze"
  input: "report_uninitialized_variables/boolean_mask/GatherV2/axis"
  device: "/device:CPU:0"
  attr {
    key: "Taxis"
    value {
      type: DT_INT32
    }
  }
  attr {
    key: "Tindices"
    value {
      type: DT_INT64
    }
  }
  attr {
    key: "Tparams"
    value {
      type: DT_STRING
    }
  }
  attr {
    key: "_output_shapes"
    value {
      list {
        shape {
          dim {
            size: -1
          }
        }
      }
    }
  }
}
node {
  name: "init"
  op: "NoOp"
  input: "^discriminator/layer_1/conv/filter/Adam/Assign"
  input: "^discriminator/layer_1/conv/filter/Adam_1/Assign"
  input: "^discriminator/layer_1/conv/filter/Assign"
  input: "^discriminator/layer_2/batchnorm/offset/Adam/Assign"
  input: "^discriminator/layer_2/batchnorm/offset/Adam_1/Assign"
  input: "^discriminator/layer_2/batchnorm/offset/Assign"
  input: "^discriminator/layer_2/batchnorm/scale/Adam/Assign"
  input: "^discriminator/layer_2/batchnorm/scale/Adam_1/Assign"
  input: "^discriminator/layer_2/batchnorm/scale/Assign"
  input: "^discriminator/layer_2/conv/filter/Adam/Assign"
  input: "^discriminator/layer_2/conv/filter/Adam_1/Assign"
  input: "^discriminator/layer_2/conv/filter/Assign"
  input: "^discriminator/layer_3/batchnorm/offset/Adam/Assign"
  input: "^discriminator/layer_3/batchnorm/offset/Adam_1/Assign"
  input: "^discriminator/layer_3/batchnorm/offset/Assign"
  input: "^discriminator/layer_3/batchnorm/scale/Adam/Assign"
  input: "^discriminator/layer_3/batchnorm/scale/Adam_1/Assign"
  input: "^discriminator/layer_3/batchnorm/scale/Assign"
  input: "^discriminator/layer_3/conv/filter/Adam/Assign"
  input: "^discriminator/layer_3/conv/filter/Adam_1/Assign"
  input: "^discriminator/layer_3/conv/filter/Assign"
  input: "^discriminator/layer_4/batchnorm/offset/Adam/Assign"
  input: "^discriminator/layer_4/batchnorm/offset/Adam_1/Assign"
  input: "^discriminator/layer_4/batchnorm/offset/Assign"
  input: "^discriminator/layer_4/batchnorm/scale/Adam/Assign"
  input: "^discriminator/layer_4/batchnorm/scale/Adam_1/Assign"
  input: "^discriminator/layer_4/batchnorm/scale/Assign"
  input: "^discriminator/layer_4/conv/filter/Adam/Assign"
  input: "^discriminator/layer_4/conv/filter/Adam_1/Assign"
  input: "^discriminator/layer_4/conv/filter/Assign"
  input: "^discriminator/layer_5/conv/filter/Adam/Assign"
  input: "^discriminator/layer_5/conv/filter/Adam_1/Assign"
  input: "^discriminator/layer_5/conv/filter/Assign"
  input: "^discriminator_loss/Mean/ExponentialMovingAverage/Assign"
  input: "^discriminator_train/beta1_power/Assign"
  input: "^discriminator_train/beta2_power/Assign"
  input: "^generator/decoder_1/deconv/filter/Adam/Assign"
  input: "^generator/decoder_1/deconv/filter/Adam_1/Assign"
  input: "^generator/decoder_1/deconv/filter/Assign"
  input: "^generator/decoder_2/batchnorm/offset/Adam/Assign"
  input: "^generator/decoder_2/batchnorm/offset/Adam_1/Assign"
  input: "^generator/decoder_2/batchnorm/offset/Assign"
  input: "^generator/decoder_2/batchnorm/scale/Adam/Assign"
  input: "^generator/decoder_2/batchnorm/scale/Adam_1/Assign"
  input: "^generator/decoder_2/batchnorm/scale/Assign"
  input: "^generator/decoder_2/deconv/filter/Adam/Assign"
  input: "^generator/decoder_2/deconv/filter/Adam_1/Assign"
  input: "^generator/decoder_2/deconv/filter/Assign"
  input: "^generator/decoder_3/batchnorm/offset/Adam/Assign"
  input: "^generator/decoder_3/batchnorm/offset/Adam_1/Assign"
  input: "^generator/decoder_3/batchnorm/offset/Assign"
  input: "^generator/decoder_3/batchnorm/scale/Adam/Assign"
  input: "^generator/decoder_3/batchnorm/scale/Adam_1/Assign"
  input: "^generator/decoder_3/batchnorm/scale/Assign"
  input: "^generator/decoder_3/deconv/filter/Adam/Assign"
  input: "^generator/decoder_3/deconv/filter/Adam_1/Assign"
  input: "^generator/decoder_3/deconv/filter/Assign"
  input: "^generator/decoder_4/batchnorm/offset/Adam/Assign"
  input: "^generator/decoder_4/batchnorm/offset/Adam_1/Assign"
  input: "^generator/decoder_4/batchnorm/offset/Assign"
  input: "^generator/decoder_4/batchnorm/scale/Adam/Assign"
  input: "^generator/decoder_4/batchnorm/scale/Adam_1/Assign"
  input: "^generator/decoder_4/batchnorm/scale/Assign"
  input: "^generator/decoder_4/deconv/filter/Adam/Assign"
  input: "^generator/decoder_4/deconv/filter/Adam_1/Assign"
  input: "^generator/decoder_4/deconv/filter/Assign"
  input: "^generator/decoder_5/batchnorm/offset/Adam/Assign"
  input: "^generator/decoder_5/batchnorm/offset/Adam_1/Assign"
  input: "^generator/decoder_5/batchnorm/offset/Assign"
  input: "^generator/decoder_5/batchnorm/scale/Adam/Assign"
  input: "^generator/decoder_5/batchnorm/scale/Adam_1/Assign"
  input: "^generator/decoder_5/batchnorm/scale/Assign"
  input: "^generator/decoder_5/deconv/filter/Adam/Assign"
  input: "^generator/decoder_5/deconv/filter/Adam_1/Assign"
  input: "^generator/decoder_5/deconv/filter/Assign"
  input: "^generator/decoder_6/batchnorm/offset/Adam/Assign"
  input: "^generator/decoder_6/batchnorm/offset/Adam_1/Assign"
  input: "^generator/decoder_6/batchnorm/offset/Assign"
  input: "^generator/decoder_6/batchnorm/scale/Adam/Assign"
  input: "^generator/decoder_6/batchnorm/scale/Adam_1/Assign"
  input: "^generator/decoder_6/batchnorm/scale/Assign"
  input: "^generator/decoder_6/deconv/filter/Adam/Assign"
  input: "^generator/decoder_6/deconv/filter/Adam_1/Assign"
  input: "^generator/decoder_6/deconv/filter/Assign"
  input: "^generator/decoder_7/batchnorm/offset/Adam/Assign"
  input: "^generator/decoder_7/batchnorm/offset/Adam_1/Assign"
  input: "^generator/decoder_7/batchnorm/offset/Assign"
  input: "^generator/decoder_7/batchnorm/scale/Adam/Assign"
  input: "^generator/decoder_7/batchnorm/scale/Adam_1/Assign"
  input: "^generator/decoder_7/batchnorm/scale/Assign"
  input: "^generator/decoder_7/deconv/filter/Adam/Assign"
  input: "^generator/decoder_7/deconv/filter/Adam_1/Assign"
  input: "^generator/decoder_7/deconv/filter/Assign"
  input: "^generator/decoder_8/batchnorm/offset/Adam/Assign"
  input: "^generator/decoder_8/batchnorm/offset/Adam_1/Assign"
  input: "^generator/decoder_8/batchnorm/offset/Assign"
  input: "^generator/decoder_8/batchnorm/scale/Adam/Assign"
  input: "^generator/decoder_8/batchnorm/scale/Adam_1/Assign"
  input: "^generator/decoder_8/batchnorm/scale/Assign"
  input: "^generator/decoder_8/deconv/filter/Adam/Assign"
  input: "^generator/decoder_8/deconv/filter/Adam_1/Assign"
  input: "^generator/decoder_8/deconv/filter/Assign"
  input: "^generator/encoder_1/conv/filter/Adam/Assign"
  input: "^generator/encoder_1/conv/filter/Adam_1/Assign"
  input: "^generator/encoder_1/conv/filter/Assign"
  input: "^generator/encoder_2/batchnorm/offset/Adam/Assign"
  input: "^generator/encoder_2/batchnorm/offset/Adam_1/Assign"
  input: "^generator/encoder_2/batchnorm/offset/Assign"
  input: "^generator/encoder_2/batchnorm/scale/Adam/Assign"
  input: "^generator/encoder_2/batchnorm/scale/Adam_1/Assign"
  input: "^generator/encoder_2/batchnorm/scale/Assign"
  input: "^generator/encoder_2/conv/filter/Adam/Assign"
  input: "^generator/encoder_2/conv/filter/Adam_1/Assign"
  input: "^generator/encoder_2/conv/filter/Assign"
  input: "^generator/encoder_3/batchnorm/offset/Adam/Assign"
  input: "^generator/encoder_3/batchnorm/offset/Adam_1/Assign"
  input: "^generator/encoder_3/batchnorm/offset/Assign"
  input: "^generator/encoder_3/batchnorm/scale/Adam/Assign"
  input: "^generator/encoder_3/batchnorm/scale/Adam_1/Assign"
  input: "^generator/encoder_3/batchnorm/scale/Assign"
  input: "^generator/encoder_3/conv/filter/Adam/Assign"
  input: "^generator/encoder_3/conv/filter/Adam_1/Assign"
  input: "^generator/encoder_3/conv/filter/Assign"
  input: "^generator/encoder_4/batchnorm/offset/Adam/Assign"
  input: "^generator/encoder_4/batchnorm/offset/Adam_1/Assign"
  input: "^generator/encoder_4/batchnorm/offset/Assign"
  input: "^generator/encoder_4/batchnorm/scale/Adam/Assign"
  input: "^generator/encoder_4/batchnorm/scale/Adam_1/Assign"
  input: "^generator/encoder_4/batchnorm/scale/Assign"
  input: "^generator/encoder_4/conv/filter/Adam/Assign"
  input: "^generator/encoder_4/conv/filter/Adam_1/Assign"
  input: "^generator/encoder_4/conv/filter/Assign"
  input: "^generator/encoder_5/batchnorm/offset/Adam/Assign"
  input: "^generator/encoder_5/batchnorm/offset/Adam_1/Assign"
  input: "^generator/encoder_5/batchnorm/offset/Assign"
  input: "^generator/encoder_5/batchnorm/scale/Adam/Assign"
  input: "^generator/encoder_5/batchnorm/scale/Adam_1/Assign"
  input: "^generator/encoder_5/batchnorm/scale/Assign"
  input: "^generator/encoder_5/conv/filter/Adam/Assign"
  input: "^generator/encoder_5/conv/filter/Adam_1/Assign"
  input: "^generator/encoder_5/conv/filter/Assign"
  input: "^generator/encoder_6/batchnorm/offset/Adam/Assign"
  input: "^generator/encoder_6/batchnorm/offset/Adam_1/Assign"
  input: "^generator/encoder_6/batchnorm/offset/Assign"
  input: "^generator/encoder_6/batchnorm/scale/Adam/Assign"
  input: "^generator/encoder_6/batchnorm/scale/Adam_1/Assign"
  input: "^generator/encoder_6/batchnorm/scale/Assign"
  input: "^generator/encoder_6/conv/filter/Adam/Assign"
  input: "^generator/encoder_6/conv/filter/Adam_1/Assign"
  input: "^generator/encoder_6/conv/filter/Assign"
  input: "^generator/encoder_7/batchnorm/offset/Adam/Assign"
  input: "^generator/encoder_7/batchnorm/offset/Adam_1/Assign"
  input: "^generator/encoder_7/batchnorm/offset/Assign"
  input: "^generator/encoder_7/batchnorm/scale/Adam/Assign"
  input: "^generator/encoder_7/batchnorm/scale/Adam_1/Assign"
  input: "^generator/encoder_7/batchnorm/scale/Assign"
  input: "^generator/encoder_7/conv/filter/Adam/Assign"
  input: "^generator/encoder_7/conv/filter/Adam_1/Assign"
  input: "^generator/encoder_7/conv/filter/Assign"
  input: "^generator/encoder_8/batchnorm/offset/Adam/Assign"
  input: "^generator/encoder_8/batchnorm/offset/Adam_1/Assign"
  input: "^generator/encoder_8/batchnorm/offset/Assign"
  input: "^generator/encoder_8/batchnorm/scale/Adam/Assign"
  input: "^generator/encoder_8/batchnorm/scale/Adam_1/Assign"
  input: "^generator/encoder_8/batchnorm/scale/Assign"
  input: "^generator/encoder_8/conv/filter/Adam/Assign"
  input: "^generator/encoder_8/conv/filter/Adam_1/Assign"
  input: "^generator/encoder_8/conv/filter/Assign"
  input: "^generator_loss/Mean/ExponentialMovingAverage/Assign"
  input: "^generator_loss/Mean_1/ExponentialMovingAverage/Assign"
  input: "^generator_train/beta1_power/Assign"
  input: "^generator_train/beta2_power/Assign"
  input: "^global_step/Assign"
}
node {
  name: "init_1"
  op: "NoOp"
}
node {
  name: "init_all_tables"
  op: "NoOp"
}
node {
  name: "group_deps_1"
  op: "NoOp"
  input: "^init_1"
  input: "^init_all_tables"
}
node {
  name: "Merge/MergeSummary"
  op: "MergeSummary"
  input: "load_images/input_producer/fraction_of_32_full"
  input: "batch/fraction_of_32_full"
  input: "inputs_summary/inputs"
  input: "targets_summary/targets"
  input: "outputs_summary/outputs"
  input: "predict_real_summary/predict_real"
  input: "predict_fake_summary/predict_fake"
  input: "discriminator_loss_1"
  input: "generator_loss_GAN"
  input: "generator_loss_L1"
  input: "generator/encoder_1/conv/filter/values"
  input: "generator/encoder_2/conv/filter/values"
  input: "generator/encoder_2/batchnorm/offset/values"
  input: "generator/encoder_2/batchnorm/scale/values"
  input: "generator/encoder_3/conv/filter/values"
  input: "generator/encoder_3/batchnorm/offset/values"
  input: "generator/encoder_3/batchnorm/scale/values"
  input: "generator/encoder_4/conv/filter/values"
  input: "generator/encoder_4/batchnorm/offset/values"
  input: "generator/encoder_4/batchnorm/scale/values"
  input: "generator/encoder_5/conv/filter/values"
  input: "generator/encoder_5/batchnorm/offset/values"
  input: "generator/encoder_5/batchnorm/scale/values"
  input: "generator/encoder_6/conv/filter/values"
  input: "generator/encoder_6/batchnorm/offset/values"
  input: "generator/encoder_6/batchnorm/scale/values"
  input: "generator/encoder_7/conv/filter/values"
  input: "generator/encoder_7/batchnorm/offset/values"
  input: "generator/encoder_7/batchnorm/scale/values"
  input: "generator/encoder_8/conv/filter/values"
  input: "generator/encoder_8/batchnorm/offset/values"
  input: "generator/encoder_8/batchnorm/scale/values"
  input: "generator/decoder_8/deconv/filter/values"
  input: "generator/decoder_8/batchnorm/offset/values"
  input: "generator/decoder_8/batchnorm/scale/values"
  input: "generator/decoder_7/deconv/filter/values"
  input: "generator/decoder_7/batchnorm/offset/values"
  input: "generator/decoder_7/batchnorm/scale/values"
  input: "generator/decoder_6/deconv/filter/values"
  input: "generator/decoder_6/batchnorm/offset/values"
  input: "generator/decoder_6/batchnorm/scale/values"
  input: "generator/decoder_5/deconv/filter/values"
  input: "generator/decoder_5/batchnorm/offset/values"
  input: "generator/decoder_5/batchnorm/scale/values"
  input: "generator/decoder_4/deconv/filter/values"
  input: "generator/decoder_4/batchnorm/offset/values"
  input: "generator/decoder_4/batchnorm/scale/values"
  input: "generator/decoder_3/deconv/filter/values"
  input: "generator/decoder_3/batchnorm/offset/values"
  input: "generator/decoder_3/batchnorm/scale/values"
  input: "generator/decoder_2/deconv/filter/values"
  input: "generator/decoder_2/batchnorm/offset/values"
  input: "generator/decoder_2/batchnorm/scale/values"
  input: "generator/decoder_1/deconv/filter/values"
  input: "discriminator/layer_1/conv/filter/values"
  input: "discriminator/layer_2/conv/filter/values"
  input: "discriminator/layer_2/batchnorm/offset/values"
  input: "discriminator/layer_2/batchnorm/scale/values"
  input: "discriminator/layer_3/conv/filter/values"
  input: "discriminator/layer_3/batchnorm/offset/values"
  input: "discriminator/layer_3/batchnorm/scale/values"
  input: "discriminator/layer_4/conv/filter/values"
  input: "discriminator/layer_4/batchnorm/offset/values"
  input: "discriminator/layer_4/batchnorm/scale/values"
  input: "discriminator/layer_5/conv/filter/values"
  input: "discriminator/layer_1/conv/filter/gradients"
  input: "discriminator/layer_2/conv/filter/gradients"
  input: "discriminator/layer_2/batchnorm/offset/gradients"
  input: "discriminator/layer_2/batchnorm/scale/gradients"
  input: "discriminator/layer_3/conv/filter/gradients"
  input: "discriminator/layer_3/batchnorm/offset/gradients"
  input: "discriminator/layer_3/batchnorm/scale/gradients"
  input: "discriminator/layer_4/conv/filter/gradients"
  input: "discriminator/layer_4/batchnorm/offset/gradients"
  input: "discriminator/layer_4/batchnorm/scale/gradients"
  input: "discriminator/layer_5/conv/filter/gradients"
  input: "generator/encoder_1/conv/filter/gradients"
  input: "generator/encoder_2/conv/filter/gradients"
  input: "generator/encoder_2/batchnorm/offset/gradients"
  input: "generator/encoder_2/batchnorm/scale/gradients"
  input: "generator/encoder_3/conv/filter/gradients"
  input: "generator/encoder_3/batchnorm/offset/gradients"
  input: "generator/encoder_3/batchnorm/scale/gradients"
  input: "generator/encoder_4/conv/filter/gradients"
  input: "generator/encoder_4/batchnorm/offset/gradients"
  input: "generator/encoder_4/batchnorm/scale/gradients"
  input: "generator/encoder_5/conv/filter/gradients"
  input: "generator/encoder_5/batchnorm/offset/gradients"
  input: "generator/encoder_5/batchnorm/scale/gradients"
  input: "generator/encoder_6/conv/filter/gradients"
  input: "generator/encoder_6/batchnorm/offset/gradients"
  input: "generator/encoder_6/batchnorm/scale/gradients"
  input: "generator/encoder_7/conv/filter/gradients"
  input: "generator/encoder_7/batchnorm/offset/gradients"
  input: "generator/encoder_7/batchnorm/scale/gradients"
  input: "generator/encoder_8/conv/filter/gradients"
  input: "generator/encoder_8/batchnorm/offset/gradients"
  input: "generator/encoder_8/batchnorm/scale/gradients"
  input: "generator/decoder_8/deconv/filter/gradients"
  input: "generator/decoder_8/batchnorm/offset/gradients"
  input: "generator/decoder_8/batchnorm/scale/gradients"
  input: "generator/decoder_7/deconv/filter/gradients"
  input: "generator/decoder_7/batchnorm/offset/gradients"
  input: "generator/decoder_7/batchnorm/scale/gradients"
  input: "generator/decoder_6/deconv/filter/gradients"
  input: "generator/decoder_6/batchnorm/offset/gradients"
  input: "generator/decoder_6/batchnorm/scale/gradients"
  input: "generator/decoder_5/deconv/filter/gradients"
  input: "generator/decoder_5/batchnorm/offset/gradients"
  input: "generator/decoder_5/batchnorm/scale/gradients"
  input: "generator/decoder_4/deconv/filter/gradients"
  input: "generator/decoder_4/batchnorm/offset/gradients"
  input: "generator/decoder_4/batchnorm/scale/gradients"
  input: "generator/decoder_3/deconv/filter/gradients"
  input: "generator/decoder_3/batchnorm/offset/gradients"
  input: "generator/decoder_3/batchnorm/scale/gradients"
  input: "generator/decoder_2/deconv/filter/gradients"
  input: "generator/decoder_2/batchnorm/offset/gradients"
  input: "generator/decoder_2/batchnorm/scale/gradients"
  input: "generator/decoder_1/deconv/filter/gradients"
  attr {
    key: "N"
    value {
      i: 120
    }
  }
  attr {
    key: "_output_shapes"
    value {
      list {
        shape {
        }
      }
    }
  }
}
versions {
  producer: 26
}
